models/mnist_lenet.pt (torch_old, 88748 bytes, 8 tensors)

conv1.weight f4 [10, 1, 5, 5]
00000000: cbc3 01be 8063 a6be 704f dcbe d544 61be
00000010: 7bfd 383d d621 03be 4694 9bbe 65ea d7be
00000020: c8a5 10be 0c28 403e efce 333e f7c1 f2bd
00000030: c7b2 8fbe a60e ddbe 0664 64bd 52c4 0c3f
00000040: f969 e0bd 1621 d4be 7a31 94be 4a37 01bd
00000050: e064 0c3f 6294 c63e c2a1 e1be 30b4 ecbe
00000060: 9abd bbbe c7ae f7be c999 a6be 744b 3cbe
00000070: 5654 b5be ac96 96be 0c2d 81be 08b6 8bbd
00000080: 7e7b d2be 2ce6 8dbe af84 c7be 6abb a63e
00000090: 8fed adbb e95b 5b3e 3401 aabb 4497 cfbe
000000a0: 5090 ca3e 35b8 773e 5c2f 633e 0d1d a13e
000000b0: 07f9 bb3d ade4 c3bd 0a17 f1bc d5bf 2a3e
000000c0: edbc 4d3e 8963 8a3e db76 993e 9944 043e
000000d0: f4bb 98be 37e5 26be f7d5 28bd d58f 1a3e
000000e0: bdcb 2bbf 0346 0bbf 00ee c23d 005a b1bd
000000f0: def6 d9bd 0273 c4be 046d e1bc e0ad f23e
00000100: 0efd 9e3e 2734 1b3e c575 2a3e 5fa8 3e3f
00000110: 626b e73d f73b 95be 4ff9 723e d903 6e3e
00000120: 1367 49be b9fc 83be cadc 4f3e c51a fa3d
00000130: 4f8d f83d 265b 353e 5999 bd3c 8c9d 853e
00000140: dfb0 adbc 758d 073e d9b6 cf3e e188 9e3e
00000150: 2a21 c53e e3b6 ddbe 4c3f e7bd d41c 033e
00000160: 9881 b83e 5f6c b93e 399a 24bf 8dc6 e0be
00000170: de02 77be 1af3 c2be 2d73 cfbe bbb9 cbbe
00000180: 2941 17bf 7360 39bf 60d8 27bf 74e3 e9be
00000190: bcd0 4f3d 23e8 19bf ca71 ffbe 1e48 48bd
000001a0: 123f b3bc 385a 0c3f 510c 79bd 0cd7 e4be
000001b0: 59a7 a7be 47cf ffbd e10b 0b3f 8e39 7b3f
000001c0: 1a60 0c3f 5a68 883d e384 f8bd 84d4 a3be
000001d0: 8733 b43e 1a1c 953e 0137 4dbd b474 ebbc
000001e0: d895 23bf a2c4 833c 372a 493e 31dc 2b3e
000001f0: e4c4 163e 6e2d c1be 8c71 8b3e 5137 44be
00000200: 9fc5 adbe 5834 133e 269b 73be af64 373e
00000210: 5cee 07be 9871 35be 080e f83d 4454 68be
00000220: 0417 113e 0585 bb3e b20a c23e 3fe4 ae3d
00000230: ab45 753e b9ef eb3e 5190 963d a3bf 02be
00000240: b45a a43d f81c a13d f409 94be 9911 c6be
00000250: dd4d d2be d7a9 c1be 5734 67be 4797 b23e
00000260: 6ff4 a73e 387b a13e 0a7a 403e dcd0 c7be
00000270: 7e0f 08be c2b3 cabd eba6 03be 199b 9dbe
00000280: e2d3 a0be 5d65 afbe 7f1d 02bf 5264 00bf
00000290: 11d4 c1be 044c 05be 1456 1fbe 5951 dfbd
000002a0: e8fb 10be a3d8 db3d 4e1e 58bc 54e6 e1bd
000002b0: 3b4e 833e 8557 af3e 209d 903e f140 a63c
000002c0: 3460 513e e01f 9bbe 5f99 55be 502a 03bf
000002d0: 627e a43e aaa7 7bbe 61a8 1bbf fb8f 04bf
000002e0: f52d de3d f72b 91bd 04c5 c7be 57f3 eabe
000002f0: 5766 b93d 691a e73e ab2f 41be f210 e4be
00000300: 8b2a 5ebe 1914 8a3e 8b08 0b3f 25dd 0abf
00000310: 9fa1 c4be dd4c 43be 19f4 1cbd e57a 203f
00000320: d20c abbe 6c58 93be cc29 c43e b68f aa3e
00000330: 26b8 e4bd f0ac 0fbf f268 69be 897d 9abc
00000340: e6c7 0b3f 62a8 d13d 43c6 a1be bfd8 4cbe
00000350: 1576 afbd e998 cc3e 72e2 003e 8609 2fbe
00000360: f113 89be 12c0 a9bc 1da7 303d da6f ad3e
00000370: 57f3 07bf c3e5 a5be 05fd d5be 68c0 5c3d
00000380: 3bcc be3e f327 233e 3577 be3e 6c37 463d
00000390: aeff cdbe 54c2 ddbe 7ada 003d 9208 053f
000003a0: f8ea 91be e6d5 afbd ed3d 0bbf c888 e63e
000003b0: b96b b43e 6870 94be 1c2c b9be 7ee1 42be
000003c0: f179 9f3e f304 423e e4ce 85be cb54 aabe
000003d0: 2bb2 2bbe e4cd 4c3e a03f 323e 34cd 2a3e
000003e0: 64c6 763d 3398 073e
-0.12672345 -0.32497787 -0.43029356 -0.21998914 0.045163613 -0.12805876 -0.3038656 -0.42171016
-0.1412574 0.18765277 0.17559408 -0.11853402 -0.28066084 -0.43175238 -0.055759452 0.5498706
-0.10957713 -0.41431493 -0.28943998 -0.03154687 0.54841423 0.38785082 -0.44068724 -0.46231222
-0.36668092 -0.48375532 -0.32539204 -0.18388158 -0.35415906 -0.2941183 -0.2522968 -0.06821829
-0.41109842 -0.2771467 -0.38968417 0.3256486 -0.00530786 0.2142178 -0.0051881317 -0.40545094
0.39563227 0.24191363 0.22186035 0.31467476 0.091783576 -0.09565101 -0.029429931 0.1667474
0.200916 0.27029064 0.29973492 0.12916793 -0.29830897 -0.16298376 -0.041219678 0.1509393
-0.67107755 -0.54403704 0.09518051 -0.08659744 -0.10642789 -0.38368994 -0.027517803 0.4739828
0.3105244 0.15156613 0.16646488 0.74475664 0.112997785 -0.29147312 0.23727916 0.23243655
-0.19668226 -0.2577875 0.20299068 0.12212137 0.121363275 0.17710552 0.02314441 0.2609676
-0.021202503 0.13237555 0.4056919 0.30963805 0.38501865 -0.43303594 -0.1129137 0.12803966
0.36036372 0.36215493 -0.64297825 -0.43901482 -0.24122187 -0.38076097 -0.4051756 -0.3979014
-0.590838 -0.72412795 -0.6556454 -0.45681345 0.050736174 -0.6011984 -0.49891502 -0.0488969
-0.02188066 0.5482516 -0.06080276 -0.44695318 -0.32744864 -0.12490707 0.54315 0.98134696
0.5483414 0.066605285 -0.12134721 -0.31998074 0.35195562 0.29123002 -0.050101284 -0.028742172
-0.6390052 0.016084973 0.1964501 0.16783215 0.14723545 -0.37729973 0.27235067 -0.19161727
-0.33939835 0.14375436 -0.23789653 0.17909501 -0.1327452 -0.17719114 0.12112051 -0.22688395
0.14168936 0.36624923 0.37898785 0.08539628 0.23952357 0.4608133 0.07351745 -0.12768416
0.08025113 0.078668535 -0.28913844 -0.386853 -0.4107503 -0.3782489 -0.2257856 0.3488104
0.32803676 0.3153932 0.18796554 -0.39026535 -0.1328716 -0.09897567 -0.12856643 -0.30782393
-0.31411654 -0.34257022 -0.5082626 -0.50153077 -0.37857106 -0.13017279 -0.1556018 -0.10904188
-0.14158595 0.107346795 -0.013190819 -0.1103026 0.25645623 0.3424646 0.28244877 0.020294638
0.20446855 -0.30297756 -0.20859288 -0.5123644 0.32127672 -0.24575678 -0.608038 -0.51782197
0.10848609 -0.07088464 -0.39017498 -0.4588878 0.09052723 0.45137337 -0.1886584 -0.44544178
-0.21695916 0.26968458 0.5430991 -0.5424369 -0.38404557 -0.1907229 -0.038318727 0.6268752
-0.3340822 -0.28778398 0.38313138 0.33312768 -0.11167936 -0.56123257 -0.2279394 -0.018858688
0.54601896 0.102371946 -0.31596574 -0.20004557 -0.08567444 0.3996041 0.12586382 -0.17093477
-0.26773027 -0.02072147 0.04312812 0.33874398 -0.5310568 -0.32401857 -0.417946 0.05389443
0.3726519 0.15933208 0.37200323 0.0483927 -0.4023413 -0.43312323 0.031458355 0.519662
-0.2849958 -0.0858572 -0.54391366 0.4502623 0.35238436 -0.2899201 -0.36166465 -0.19031331
0.3114772 0.189472 -0.26134408 -0.33267817 -0.16767184 0.20000416 0.17407084 0.16679841
0.060247794 0.13241653

conv1.bias f4 [10]
00000000: 16a1 563e 0038 85be d96b d3be b1b8 abbd
00000010: 746e 01bf 98fa 98bd b370 e6bd 3560 1dbd
00000020: 4929 d8be e40c 5abf
0.20959887 -0.26019287 -0.4129322 -0.083848365 -0.50559163 -0.07469672 -0.112519644 -0.03842183
-0.42218998 -0.8517592

conv2.weight f4 [20, 10, 5, 5]
00000000: 50cc 5abd c611 b13b debb bfbc f90d 46be
00000010: e102 62bd 8340 b1bd d3c5 22be 0c7b 5ebe
00000020: fb55 c1bd d192 153e a235 e6bd ef02 27be
00000030: 4bbc 53bd 142c 4f3d da82 113d c03f 45bd
00000040: df04 2ebe 2a57 e3bc 76cd 1a3e 4df8 cd3d
00000050: 3f6b b7bd ea25 c03d b388 003e 25c0 1a3e
00000060: 333a ad3d e176 2abd d7b7 b73d 2fae 013d
00000070: 4ff2 393d 4be2 523d c34f 593d 228e 463d
00000080: 19ba 18bd e826 bd3d e036 4b3e bb6d d7bd
00000090: 0311 91bd 6c78 81bb 8c1d ea3d 106b 633d
000000a0: c45e c63c fec8 f5bc fc3f 273d c95d 9c3d
000000b0: 25d3 a93c 1ba7 3ebd e110 9dbd 1700 cabd
000000c0: a53a dcbc 09c7 cb3c 411e aabd cea2 09be
000000d0: 4642 b0bd 21ec f1bd 2f1a b2bd bd4f dcbc
000000e0: 237a 653d ff02 e63d 8b24 ce3c 3565 9ebc
000000f0: 4201 e1ba 77a3 c33d f8f0 3c3e 64f5 563c
00000100: 9db4 7bbd c55c 5d3e ee3a 023e 5efa 703d
00000110: fcb9 79bd 22d8 1dbc e02d a33c b2bd 94bd
00000120: 156f 41bd 098b babd 3dc5 d0bd ce58 42be
00000130: d4be 113d 94b3 3f3d 5d58 123c ac53 07bc
00000140: 12ca 87be 91c8 40be 5be6 11bd 8d04 a13b
00000150: 660f c93c 0e23 96be 98d5 96be 6e57 893c
00000160: f6c5 233e b3af 52bc 6312 a3be 28c2 56be
00000170: 8320 8b3d 0659 743d ee1c 9b3d 77a8 15be
00000180: 9848 a7bd 5917 083a ac57 f23d f9c0 a13e
00000190: e447 00be 8e0a 77bd acbc 963d 283a 89bd
000001a0: e954 4ebe 3972 1c3e 36c6 d43c 15d2 283d
000001b0: 2d8b d03d 2a8d 583d 4bd2 233e b01f b1bd
000001c0: b388 c43c 8826 ed3d c0d0 123d f30b 383e
000001d0: 24cf 43be ab72 a53d a3fa 713e 0b4b a63d
000001e0: 6606 a5bc ec8a 8fbd 0640 8dbd 2e2b 8e3d
000001f0: 7b96 153e cb03 b8bd 089d 5bbd e0ac cd3d
00000200: a792 c83b b1ff cc3c e5ec 93be ca00 56bd
00000210: 87be ca3d 407c 0f3d 1d29 89bd 7708 1fbe
00000220: 7a86 813d 742b 363e bc0a 3d3d a41b 00bd
00000230: 862c a93d 8530 563e 065a 9d3d dc9f 583d
00000240: a4c4 803d 493a 1ebe ec75 53be 2aa3 093d
00000250: fbb2 e93b 8e83 75bb e62a 90bd fc9b d6bc
00000260: 21da 09bd 8dcb 333c 5316 53bd e9bb 65bd
00000270: cde2 c33c b14b 063e b74c 6c3d 9bdc 98bb
00000280: 3bff 5abd 4162 633d 3a65 8e3d 07c1 8d3c
00000290: 0a56 df3b f702 d3bc 044e 25bc b9d5 3d3d
000002a0: a467 a33c ad0f f73c 5dd8 30be d7ce f3bd
000002b0: b840 c1bd 1e53 a3bd 3057 aabd 07f6 6a3e
000002c0: 0c69 753d e9b5 8fbd 38a1 6cbd 05ea 003c
000002d0: f533 423e de40 403d ccb0 28bc aded dbbc
000002e0: e4fa 2d3d 0006 d7bd 8dd3 d03d f0e7 013d
000002f0: 1403 2abe babe c0bd 7320 9f3c 0fb5 c33b
00000300: eb1e adbc 82a1 90bd f67c 65be 047c b03c
00000310: 9a28 1bbe ab98 1fbd 8feb b3bd a941 55be
00000320: 7c57 b03d 0165 de3c 2c44 e83d 09cf 093e
00000330: ade3 793b 0af0 b13d fc26 d8bd eea7 50be
00000340: a84e 7abd 2a06 a6bd 1eda 193c 92ba 71be
00000350: 3056 48be b05a 04be 9d7a fdbd b9a3 62bd
00000360: 5b47 efbd 77ca b4bd 5d87 a33c 391e 2fbd
00000370: 798d a03e 3160 78bd 933f 53bd 1edf 0dbe
00000380: 0091 2dbe 27c9 363d f928 ac3d f5c5 223d
00000390: 1c32 653d 8a4b fd3d 8cfd 19bd 01aa 83bd
000003a0: 3d36 0fbd d3c8 86bd d7ac 3ebe 51c4 25be
000003b0: 6e50 e7bd 1c31 8abd b6e5 72bd 1695 49be
000003c0: d0da 69be 13d7 25bd 0f5c 0ebd 8339 6abd
000003d0: 98b1 48bd 24df 413e 52bd 8a3e 7f5a 163e
000003e0: 04bb cdbd 9804 1cbe fdf0 223e 4ef0 673d
000003f0: 7a77 8d3d 72fd e23c 1a05 b33d c3ba 723d
-0.053417504 0.00540373 -0.023405012 -0.19341268 -0.055178527 -0.08654883 -0.15895776 -0.21726626
-0.094402276 0.14606787 -0.112406984 -0.16309713 -0.051693242 0.050579146 0.03552518 -0.0481565
-0.16994046 -0.027751524 0.1511744 0.10057125 -0.089560024 0.093822315 0.12552147 0.1511236
0.08458366 -0.041617278 0.089706115 0.031660255 0.0453971 0.05148534 0.053054582 0.048475392
-0.03728685 0.092359364 0.19845152 -0.10518976 -0.07083323 -0.003951123 0.11431417 0.055522025
0.02421511 -0.030003067 0.040832505 0.076350756 0.020730564 -0.046546083 -0.07669235 -0.098632984
-0.026883433 0.02487518 -0.08306552 -0.13441011 -0.08606391 -0.11812616 -0.086964004 -0.02689349
0.05602468 0.1123104 0.02516391 -0.019335369 -0.0017166513 0.09552663 0.18451297 0.013120029
-0.061451543 0.2161742 0.12717792 0.05883252 -0.060968384 -0.00963405 0.019919336 -0.07262744
-0.047225077 -0.0910855 -0.1019387 -0.18979189 0.03558238 0.04680212 0.0089322 -0.008259695
-0.26521355 -0.1882651 -0.035620075 0.0049138726 0.024543475 -0.2932362 -0.29459834 0.016765323
0.15993485 -0.012859273 -0.31849965 -0.20972502 0.067933105 0.059655212 0.07573877 -0.14615045
-0.08168143 0.00051914674 0.11833128 0.3159254 -0.12527424 -0.0603128 0.07360205 -0.067005455
-0.20149578 0.15277947 0.02597342 0.041215975 0.10182796 0.052869 0.15998189 -0.08648622
0.023990965 0.11579615 0.03584361 0.17973308 -0.19121987 0.08078512 0.23630767 0.08119782
-0.020144653 -0.07008919 -0.06896977 0.069418296 0.14608185 -0.089850985 -0.053616554 0.10042739
0.006120998 0.025024267 -0.28891674 -0.052246846 0.098996215 0.035030603 -0.06697295 -0.15530573
0.063244775 0.17790014 0.046152815 -0.03127636 0.08260445 0.20916946 0.07683186 0.05288683
0.06287506 -0.15451922 -0.20650452 0.03360287 0.007131932 -0.0037462446 -0.07039432 -0.026197426
-0.03365529 0.010973823 -0.051534962 -0.05608741 0.023911858 0.13114811 0.05769035 -0.00466497
-0.053466063 0.055513624 0.06952901 0.017303957 0.0068156766 -0.02575825 -0.010089401 0.0463464
0.01994688 0.030158842 -0.17270036 -0.11904686 -0.09436172 -0.07974838 -0.08317411 0.22945414
0.059914634 -0.070171185 -0.057770938 0.007868295 0.18965133 0.046936862 -0.010296058 -0.026846731
0.042475596 -0.10499191 0.101966 0.031715333 -0.16602737 -0.09411378 0.019424653 0.0059725116
-0.021132907 -0.07062055 -0.2241095 0.02154351 -0.15152207 -0.038963955 -0.087851636 -0.20825829
0.08610436 0.027147772 0.11341128 0.13457884 0.003813009 0.08688362 -0.10554311 -0.2037656
-0.06111017 -0.081066445 0.009390382 -0.23606327 -0.19564128 -0.1292522 -0.12376902 -0.05533192
-0.11683532 -0.088276796 0.019962007 -0.042753432 0.31357935 -0.06063861 -0.0515743 -0.13854644
-0.16949844 0.044625428 0.084062524 0.039739568 0.05595599 0.123679236 -0.037595317 -0.0642891
-0.034963835 -0.06581273 -0.1862062 -0.1618817 -0.112946376 -0.06747648 -0.0593011 -0.19685778
-0.22837377 -0.040488314 -0.034755763 -0.057183754 -0.04899749 0.18932778 0.27097565 0.14682959
-0.10045436 -0.15236127 0.15912242 0.056625657 0.06907554 0.027708743 0.087412074 0.05926014

conv2.bias f4 [20]
00000000: 5b0f bcbd 5e79 25bd 4b3d 06be fd56 8c3d
00000010: 50d9 063d aff3 813d 8987 59bd dc05 fdbc
00000020: 465a e33b 82ee ccbd fd7b c03d daa6 0cbd
00000030: e9d4 d63d 31bb c9bd c333 053e 5d16 00be
00000040: d549 86be d313 79be 24f4 2fbe 3115 5abe
-0.09182616 -0.040398948 -0.13109319 0.06852529 0.03292209 0.06345307 -0.053107772 -0.030886583
0.0069382517 -0.10006429 0.09398649 -0.03433881 0.10489828 -0.09850157 0.13008027 -0.12508531
-0.26228204 -0.24323969 -0.17182976 -0.21297146

fc1.weight f4 [50, 320]
00000000: 17f7 11be 256b d1bd 6cc9 1cbc bd9f c63d
00000010: 8c84 f5bd 9bbf cd3c e408 963d 724d 603d
00000020: d36e 52bd 2e2a 2fbe 9fa3 d2bc 1356 a6bd
00000030: 0bdc 563e 7b95 8c3d 33de 723d 2707 94bc
00000040: 850a 7bbd 9039 0b3d 03a5 173e 9c42 403e
00000050: 35e6 2e3e 7ffb 723d 9a64 11be c486 13bc
00000060: 0aa2 3a3d d8bc a73c 9fa4 06be 9da9 c2bd
00000070: b199 7fbd 8331 e03b 7c47 3d3d 44ef 92bc
00000080: c01a bebd 86ca 94bd cd74 91bc bb4e 913d
00000090: 7cf6 bebd befd 66bc 3d8b 1dba 5976 053e
000000a0: 9b4f 493e 5897 bb3d 2add 3dbd 2c75 99bd
000000b0: 65e8 6ebd 6a16 89bd 9d7c 79bd db6b c63c
000000c0: 9b05 23be 2341 55be ced7 fc3b 1020 863d
000000d0: 9b7c a5bc 70e0 f13d 809d 263e 08cf 1a3e
000000e0: 0b8d 86be bc59 1fbd 4c4f e8bc 1679 71bd
000000f0: 33ae 9ebc fa52 af3d 10c0 0e3e ba5d 093c
00000100: 02e7 10bb c368 c9bc 3d49 c4bd c00c 463e
00000110: 141f 42be e696 cc3d d621 883c 7ba0 34bc
00000120: 97ee 10be 37fa 603e 9906 a83d 42c6 00be
00000130: e12b 7fbd 49b4 f23d 7560 683d 0264 00bd
00000140: 8043 42bd 4a83 8dbc 5065 ad3d 45b2 7a3e
00000150: c702 61bc 4aa7 b33d 2110 423e 0d9a c13c
00000160: 61d2 a43d 299d 913c 56ce 4bbd afc3 85be
00000170: 19cd 90bd 9c92 983c 571b fd3d 94e1 b93c
00000180: 2629 43bd 2dcc 733c 6203 ed3d 23ca 043e
00000190: c240 f03c 8d44 bc3b 72ad 9e3c 544b 13be
000001a0: bf62 e8bc abdb 4abd 9a2f 423d 0337 7ebd
000001b0: 3431 53be 3c70 d2bd 59b6 683d 00b2 0d3e
000001c0: 692c 3fbd e115 5f3d 374e 1ebc c42b 5a3e
000001d0: 3936 2e3d 850c 253d 1060 07be 6557 1f3e
000001e0: ab59 63bd 7dee c93d 5a4b d93c 4aaa 76bd
000001f0: 040d febd 3537 d43d 5236 1e3d e656 0abe
00000200: 6951 7cbd f389 b53d f7b7 a43d c14b d93d
00000210: 66af 1fbd 9926 073e b572 143e 75ea a9bc
00000220: 9ec9 39be f035 ca3d 86e4 11bd 3edf 6abd
00000230: 7f25 49be be74 de3b 9809 873d e0f9 563d
00000240: 038d cb3d f460 3cbd 0125 32bd 4e4d f73d
00000250: 0270 be3c 4a90 ad3d fd40 433d ff28 be3d
00000260: db0b b73d 0fe0 cf3c a9b9 ac3d d526 1dbe
00000270: b641 bcbd 4a06 083d b9a9 033d 420a 0bbd
00000280: 36c3 afbb d421 743d 88fc cd3d 9aa0 a63c
00000290: 7d79 15bc c735 be3d dc56 e4bd b666 4fbe
000002a0: 8c43 61bd dc72 e33d 5561 d0bb f336 193c
000002b0: 3075 e5bd 2bd1 35bd 42b9 0d3d 44c8 873c
000002c0: 0b48 a6bd 5b7d 813d 42e0 36bd 54af 09be
000002d0: 8418 48bd 2a2f 07be 3281 793c 3dd1 593d
000002e0: 2983 2b3e e86b 6d3c 8b17 b83d 8f62 253d
000002f0: 20a8 093d ba23 8c3d 7355 0c3b 43a9 b0bd
00000300: dd49 42be a1b9 2a3e 8340 253e 8c24 f93d
00000310: 7cde c8bd 1ac3 163e 644e 443a 3e4e c2bd
00000320: 4e92 cbbd c88d 95bd ab64 4fbc fb3d 1dbe
00000330: fca5 49bd 9065 56bb 0065 d03d 8747 173e
00000340: 3f53 123c 9aa9 14bd f6ad bb3d 3dd6 833d
00000350: 3386 5fbd 8c16 993c b411 8c3c 6d58 93ba
00000360: 1f89 d3bd d0cf 03be 4882 2bbd 972d 1ebe
00000370: cdd0 a2bd 829a 14bd bef8 253d 9fa6 013e
00000380: b680 9fbc ee49 883d a37f e73d 8a37 babd
00000390: 8e7b 8bbd c381 053e e133 1e3b 2f2e dcbd
000003a0: ef48 fcbd e72f 7cbc 4315 893c f010 e43d
000003b0: 600d 1e3b c598 6ebd 7c85 9c3d 6d22 653d
000003c0: 9681 aabb 8607 723d 9915 283e fb12 043e
000003d0: d08a bfbd c013 b43b fd62 c0bc 8666 3fbd
000003e0: 2368 2bbd 8039 b13d efd0 a0bc bc3d cabe
000003f0: 418b 35bd cfbf 693d de31 d93d f079 5abd
-0.14254414 -0.10225514 -0.009569507 0.096984364 -0.11988172 0.025115779 0.073259145 0.054761358
-0.05137522 -0.17105934 -0.025712786 -0.08121886 0.20982377 0.06864449 0.059293937 -0.018069817
-0.06128933 0.033990443 0.1480904 0.1877541 0.17080005 0.059321877 -0.14198533 -0.009004299
0.04556469 0.02047579 -0.13148735 -0.095050074 -0.06240243 0.0068418398 0.04621075 -0.017936356
-0.09282446 -0.07265191 -0.01775589 0.07095095 -0.09324357 -0.014098583 -0.0006009823 0.13033427
0.19659273 0.09159726 -0.046353497 -0.07493052 -0.058327097 -0.06693728 -0.060909856 0.024221351
-0.15920107 -0.20825629 0.0077161556 0.06549084 -0.020201018 0.11810386 0.16271019 0.15118039
-0.26279482 -0.038903937 -0.028358124 -0.058953367 -0.019370174 0.085607484 0.13940454 0.008384163
-0.0022110348 -0.024586087 -0.095842816 0.19340801 -0.18957168 0.09989719 0.016617697 -0.01102459
-0.14153515 0.2197045 0.082043834 -0.1257563 -0.062297706 0.11850793 0.056732614 -0.031345375
-0.047427654 -0.017274518 0.084665895 0.24482067 -0.013733572 0.08772142 0.18951465 0.023633027
0.08047939 0.017775135 -0.049757324 -0.26125857 -0.07070369 0.018624596 0.1235873 0.022690572
-0.047646664 0.014880222 0.11572911 0.12967734 0.029327754 0.0057454766 0.019369815 -0.14384204
-0.028367398 -0.049525898 0.047408678 -0.062064182 -0.20624238 -0.10275313 0.056814525 0.13837433
-0.046673212 0.054464225 -0.009662203 0.21305758 0.04253218 0.040295143 -0.13220239 0.15560682
-0.055505436 0.09859941 0.026525188 -0.060220994 -0.12404826 0.103620924 0.038626023 -0.13509712
-0.061601076 0.08864202 0.08042901 0.10610152 -0.038985632 0.13198318 0.14496882 -0.02074168
-0.18143317 0.09873569 -0.035618328 -0.057341807 -0.1964321 0.006788819 0.06593627 0.052484393
0.09939005 -0.0459909 -0.04349232 0.120752916 0.023246769 0.084747866 0.0476694 0.09285163
0.08937808 0.025375394 0.08433849 -0.15346844 -0.09192221 0.033209123 0.032144282 -0.03394533
-0.005363847 0.059602574 0.10057932 0.020340253 -0.009123203 0.09287601 -0.111493796 -0.20254025
-0.05499606 0.11105892 -0.006359259 0.00935148 -0.11203992 -0.04438893 0.034600504 0.016574986
-0.0811921 0.06322738 -0.044647463 -0.13445789 -0.048851505 -0.13201585 0.0152285565 0.05317806
0.16749252 0.014491059 0.089888655 0.040377196 0.033607602 0.06842752 0.0021413236 -0.08626034
-0.18973489 0.16672374 0.1613789 0.12165174 -0.098080605 0.14722863 0.0007488488 -0.0948758
-0.09940015 -0.07302433 -0.012658278 -0.15355675 -0.04923056 -0.0032714345 0.10175514 0.1477338
0.00893098 -0.036294557 0.0916404 0.06437347 -0.05457134 0.018687509 0.017098285 -0.0011241563
-0.10328888 -0.12872243 -0.041872293 -0.15447079 -0.07949982 -0.036280163 0.040520422 0.12661217
-0.019470554 0.06654726 0.11303642 -0.090926245 -0.068106756 0.13037781 0.002413981 -0.10750996
-0.123185985 -0.01539228 0.016733771 0.11136043 0.002411686 -0.05825116 0.076426476 0.055941034
-0.005203436 0.059089206 0.16414489 0.12897865 -0.09352648 0.0054955184 -0.023484701 -0.046728633
-0.04184736 0.086535454 -0.019630877 -0.39500225 -0.044322256 0.05706769 0.106052145 -0.053338945

fc1.bias f4 [50]
00000000: 88fb 5f3e 5dcf d23e f384 513e 73df a83e
00000010: a130 ccbc 719a d13d 7515 a93d b905 983e
00000020: 14b6 043d 0ce1 b83d fb2b cc3c 4f30 e83e
00000030: 4bfa bf3e c99d 553e 4b7e 3dbd 47f4 333d
00000040: fc88 e43d 5ef4 173e 0f56 5a3e 172b 833e
00000050: 39b6 a13e 25b3 673e be5e 933e 158b bf3b
00000060: eafb fe3d f4ff 463e 0035 a33e 47e4 a83e
00000070: a600 d43d bf26 9e3e be4c 9c3e 6699 143e
00000080: 8f9f 4e3e 6117 12be f843 573d 04e8 eb3c
00000090: 7945 213e 60b6 613e ef17 c53d 8bf4 0e3e
000000a0: 5de3 32be dc3b 033e 15dc 093e 6f33 bdbc
000000b0: f31b ce3d aba5 bc3c 70c5 3f3e 2e1b eabc
000000c0: f97a eb3c 1c04 a33d
0.21873295 0.4117383 0.20460872 0.32982978 -0.024925532 0.102345355 0.08256046 0.29691866
0.032400206 0.09027299 0.024923315 0.45349357 0.37495646 0.20860972 -0.04626302 0.043934133
0.1115894 0.14839312 0.21321891 0.25618812 0.31584337 0.22626932 0.2878322 0.0058454373
0.124503925 0.19433576 0.31876373 0.32986662 0.10351686 0.30888936 0.305273 0.14511642
0.20178054 -0.14266731 0.052555054 0.028797157 0.15749158 0.22042227 0.096237056 0.13960473
-0.17469545 0.12815803 0.13462861 -0.023095815 0.10063925 0.023028215 0.1872766 -0.028577413
0.028745161 0.07959768

fc2.weight f4 [10, 50]
00000000: 92aa c6be dfef 983e 9b0d 8e3e e701 d0be
00000010: c0dc 97be 6f21 0a3e c7eb b93e 4265 8c3e
00000020: 0ec6 59be fbc1 ec3e c643 9d3c a0b7 60be
00000030: 8924 6fbe 34e9 b73e e4a6 46be f2cb 62bd
00000040: 8ada 1c3e e623 0a3f 5902 91be b352 a5be
00000050: 181b 62be 2022 983e 94fb ecbe c2f1 aabe
00000060: 0ba3 b2be 192d b6be 9031 abbe 7242 90bd
00000070: 5ada d039 1f2b fbbe 21d6 61be c9cc 9e3e
00000080: b846 0f3f c516 c9be 71fd 4cbe 16ce a8be
00000090: 041e a13e 7ce7 a7be ac36 a33e c1e3 d03e
000000a0: bf00 33be 4915 bbbe cf51 833e 2faf e2bc
000000b0: d860 c33e c99d 923e 8847 74be 4840 e3be
000000c0: 15a9 36be 0c13 7e3e 8ecb 863e 9a22 973e
000000d0: 9292 b0be 1eb5 9a3e 6208 a6be 314c 26be
000000e0: 6fd7 c1be cbdc a13e 2664 35be 2b48 06be
000000f0: 1cd1 c7be 0be5 163f c0e4 9a3e 759c b2be
00000100: c9ba 65be f1e5 9ebe a0b3 ebbe f6ed 81be
00000110: a3aa 873e 146a bf3e f918 b83e b8ab 713c
00000120: 2fb4 ef3e fe6f 97be ee17 f4bd 94d3 5a3e
00000130: 4dbb a83e ef61 d73e fbe8 a1bd 3b3c 923e
00000140: 5e72 f33e 827e a9be 3b5a 29be 4d3c bfbe
00000150: 6d34 2ebe c841 05bf 1e5a 9fbe 1a3f ab3e
00000160: 72f4 a6be b7df 88be 2593 debe b584 88be
00000170: 9d07 f0be 1e1e c6bd 5157 8ebe c0e3 61be
00000180: 65f0 363e 6613 b4be da9d 53be 0b76 b1be
00000190: bddd 8ebe c952 52be bc06 b8be f7a5 803e
000001a0: 3de3 c0bd 3fe3 33be c540 ccbd cc3a af3e
000001b0: 57c6 8a3e 820c 003f 4902 a03d 2fc9 dfbd
000001c0: 0329 963e a3e1 6cbd f17c 49be 38e9 15be
000001d0: fe48 2fbd 88be 80be 3ea2 9cbd 80b0 ce3e
000001e0: bb2c 93be c970 7a3e fae1 fc3e 54e1 933e
000001f0: f09f 76bd e2b4 d5be cadd 95be 3ff1 45bd
00000200: ca94 5dba 7faf 4abe e3b5 37be 5a11 4cbe
00000210: 35d1 54bc 0686 bfbe 29f1 de3e c961 25be
00000220: a0eb 613e e5e8 c23e 5804 6d3e 805d ad3e
00000230: 1a4e 713e f025 4c3a 5e05 7b3e 5888 023f
00000240: 33f1 74be 002b d3bd fb90 b53e f5dd b6be
00000250: 7314 cc3e a3dc 9d3e 9fd4 9c3e 1f46 ccbe
00000260: 9078 43be 6c20 a5be 9a54 51be fef1 e8bd
00000270: c269 a33e 3b40 6a3e 66ce 5c3e efde 1ebe
00000280: 694b a1be 0dae b1be 77d8 a9be a340 44be
00000290: 6959 da3e 1211 97bd f7e2 abbd fee3 f9bd
000002a0: d733 debd 1699 e73e 5f10 bbbe c9c4 94be
000002b0: 1ffd 8ebd 346f ac3e 0e03 bb3e 8f4a 823e
000002c0: fb6e 46be 0272 b4be 82c1 bf3e 6253 62be
000002d0: 451a 6cbc b8bf 4abc dad7 41be 75a0 a13e
000002e0: c185 2cbe b1a4 7ebe 7e43 acbd 8103 be3e
000002f0: 226b b43e 0c7d 49be bf93 943e 22fc 5ebe
00000300: 0208 dbbc 5501 5a3b cde3 5fbe 984a 9f3e
00000310: b247 c53e f974 e03e db2e 893e 62e9 95bd
00000320: c578 6b3d 3a7c 83be 536a d9be d4fd 2bbe
00000330: 9395 cc3e 3a15 b1be 6438 23be bd47 80be
00000340: 75aa 933e 1978 9c3d 0770 dd3e f9b0 0c3f
00000350: 5ad0 913e 83dc 7bbe a9e4 913e 4295 b43e
00000360: dd31 a9be 9148 8a3d 3dc8 5fbc b867 32be
00000370: 3166 a83e 0639 5c3e 887c 86bd 981b 52be
00000380: f3c7 7a3e ca21 a4be 8661 893e 7e42 f13e
00000390: e196 e5be ef61 cc3e 799d 57bd 2853 cbbe
000003a0: 7324 213e c033 693e 2bda 7f3e 67dc a93e
000003b0: 0d45 9f3e 789a 2dbe f186 9ebe 25f0 af3e
000003c0: 6c29 b5be 4d0e fa3e f7e7 b03e 795a d53c
000003d0: ba3c 01be de76 43be 62b5 a9be ff94 cc3e
000003e0: a1e3 89bd b5d7 55be deb0 973e c007 9e3e
000003f0: 9420 903e 912b 053d 9efc 3fbe 98ca 993e
-0.3880201 0.29870507 0.27744755 -0.4062645 -0.29660606 0.13489316 0.36312696 0.27421004
-0.21266958 0.46241745 0.019197356 -0.21945047 -0.23353781 0.35920107 -0.19399601 -0.05537028
0.15317741 0.53961027 -0.28322104 -0.32289657 -0.22080648 0.29713535 -0.4628569 -0.33387572
-0.34890017 -0.35581282 -0.3343625 -0.070439234 0.00039835536 -0.49056336 -0.2205434 0.31015614
0.55967283 -0.39275184 -0.20018555 -0.3296973 0.31468213 -0.32793796 0.3187765 0.40798762
-0.17480753 -0.36539677 0.25648353 -0.027671425 0.38159823 0.28636006 -0.23855412 -0.4438498
-0.17837937 0.24811953 0.26327175 0.29518586 -0.34486824 0.30216306 -0.3242827 -0.16240002
-0.37859675 0.31613764 -0.17713985 -0.13113467 -0.39026725 0.5894324 0.30252647 -0.34884992
-0.22434534 -0.31034806 -0.4603548 -0.25376862 0.26497373 0.3738562 0.35956553 0.014750414
0.46817157 -0.2957763 -0.11918627 0.21369773 0.329554 0.42066905 -0.079057656 0.28561577
0.47548193 -0.3310433 -0.16538326 -0.37350693 -0.17012186 -0.520535 -0.3112344 0.3344658
-0.32608372 -0.2673318 -0.43471637 -0.26663747 -0.46880808 -0.09673713 -0.27800992 -0.22059536
0.1786514 -0.3517105 -0.20665684 -0.34660372 -0.27903548 -0.20539393 -0.35942638 0.2512662
-0.09418342 -0.17567156 -0.09973291 0.34224546 0.27104446 0.50019085 0.07812936 -0.109270446
0.29328164 -0.05783237 -0.19676568 -0.14639747 -0.04279422 -0.25145364 -0.07648133 0.40369034
-0.28745064 0.24457087 0.49391156 0.2888285 -0.060211122 -0.41739565 -0.29270774 -0.048325773
-0.0008452652 -0.19793509 -0.17940478 -0.19928494 -0.012989332 -0.3740694 0.43543366 -0.16150583
0.2206254 0.3806831 0.23146188 0.33860397 0.2356495 0.00077876355 0.24513766 0.50989294
-0.23920135 -0.10310936 0.35462174 -0.35716215 0.39859352 0.30832395 0.30630967 -0.39897248
-0.1908896 -0.32251298 -0.20442429 -0.11374281 0.31916624 0.22876064 0.2156311 -0.1551473
-0.31502846 -0.34703103 -0.33172962 -0.19165282 0.4264634 -0.07376303 -0.083928995 -0.12201689
-0.108497314 0.45233983 -0.36535928 -0.29056385 -0.06981873 0.3367859 0.36525768 0.2544751
-0.19378273 -0.3524323 0.37452322 -0.2210212 -0.01441056 -0.012374811 -0.18929997 0.31567731
-0.16847898 -0.24867512 -0.084113106 0.37112048 0.35237986 -0.19676608 0.2901897 -0.21775869
-0.026737217 0.0033264954 -0.21864243 0.31111598 0.38531262 0.43839243 0.2679356 -0.07319905
0.05748822 -0.25680715 -0.4246393 -0.16796046 0.39957866 -0.34586507 -0.1593948 -0.25054732
0.28840986 0.07640094 0.43249533 0.5495754 0.28479272 -0.24595837 0.28494766 0.35270125
-0.33045855 0.06752122 -0.01365858 -0.17422378 0.32890466 0.21506128 -0.06566721 -0.20518339
0.24490337 -0.3205703 0.26832217 0.47121042 -0.44841674 0.39918467 -0.052640412 -0.3971188
0.1573656 0.22773647 0.24985568 0.33175966 0.3110737 -0.16953456 -0.30962327 0.34362903
-0.35383165 0.48839036 0.34551975 0.026044117 -0.12620822 -0.19088313 -0.33146197 0.39957425
-0.0673287 -0.20883067 0.29627126 0.30865288 0.28149855 0.03251225 -0.1874871 0.3003738

fc2.bias f4 [10]
00000000: b7d1 a33d 0967 533f 18d2 c6bd 8890 0bbe
00000010: 8e26 4ebe e0bb 853e ebb5 e4be 8c02 3f3e
00000020: e8ce ab3d 49ae 04bf
0.07998984 0.82579094 -0.09708041 -0.13629353 -0.20131895 0.261199 -0.44670042 0.18653315
0.083890736 -0.5182844
