models/mnist_lenet.pt (torch_old, 179343 bytes, 10 tensors)

C1.weight f4 [6, 1, 5, 5]
0.44479692 -0.0037368357 -0.004870257 -0.09793611 0.20974088 -0.10950534 -0.15410899 -0.61072665
-0.6466878 -0.3075458 -0.14223638 -0.3275912 -0.46156448 -0.6535613 -0.2804734 0.26713765
-0.42556983 -0.5084899 -0.36200693 -0.30200088 0.3231965 0.21738501 -0.035445932 0.017670184
0.5204842 0.10271658 -0.23012966 -0.44612136 -0.70084095 -0.496121 0.23326516 0.13349502
-0.44617382 -0.7335059 -0.35551578 0.36901394 0.5295362 0.16568898 -0.3279281 -0.24276789
0.19884633 0.48332787 0.6148998 0.49957377 -0.028521648 0.013921852 0.36992675 0.44810757
0.48793635 0.10031334 -0.031260323 0.1871343 0.14676388 0.24178745 0.044394404 -0.19919312
0.1565776 0.24538708 0.5368587 0.013203279 -0.123499736 0.13284029 0.46700817 0.3516799
-0.3606396 -0.29149035 0.078347504 0.548288 0.3006801 -0.15680405 -0.073974736 0.119047396
0.5655602 0.15111889 -0.31259578 -0.12715422 -0.33713755 -0.62757385 -0.16045377 0.3186873
-0.34457815 -0.4613634 -0.52129835 0.03494366 0.63006693 -0.35681093 -0.47564593 -0.07304063
0.4792703 0.5878815 -0.16772342 0.0208126 0.49333146 0.7909533 0.2582828 0.17964327
0.41645563 0.50693035 0.3647264 0.14097941 0.43343824 0.68091506 0.35583276 0.45027468
0.1197113 0.5607252 0.29386833 0.10890598 -0.16773306 -0.07765705 0.24987301 -0.24655701
-0.624013 -0.49870938 -0.3495925 -0.09603212 -0.61945534 -0.46581933 -0.55174273 -0.24928692
-0.14601125 -0.49887016 -0.14193588 0.0749573 0.028582081 -0.10556248 -0.04556031 0.10023674
0.075450964 0.035088822 -0.13381994 0.11329033 0.30348426 0.26035658 0.42424423 0.18432121
0.21713793 -0.07578249 0.26431495 0.117904626 -0.26261535 -0.28653944 -0.19666196 0.11784718
0.3374187 -0.34637472 -0.17779756 -0.5027352 -0.35714316 -0.08056101
00000000: 6cbc e33e b3e5 74bb ad96 9fbb ba92 c8bd
00000010: 50c6 563e 5644 e0bd bfce 1dbe 9558 1cbf
00000020: 558d 25bf a576 9dbe 6aa6 11be 09ba a7be
00000030: 2e52 ecbe cb4f 27bf 369a 8fbe 44c6 883e
00000040: 4ae4 d9be 652c 02bf f958 b9be dc9f 9abe
00000050: 037a a53e 2d9a 5e3e c12f 11bd 10c1 903c
00000060: 743e 053f 125d d23d 1ca7 6bbe 056a e4be
00000070: 506a 33bf 9203 febe 10dd 6e3e ebb2 083e
00000080: e570 e4be 0bc7 3bbf 2a06 b6be 65ef bc3e
00000090: af8f 073f 5faa 293e 31e6 a7be 2598 78be
000000a0: 5f9e 4b3e c076 f73e 136a 1d3f 22c8 ff3e
000000b0: 3ba6 e9bc 7b18 643c 0a67 bd3e 5b6e e53e
000000c0: cbd2 f93e 1571 cd3d d30a 00bd 22a0 3f3e
000000d0: 4549 163e 2197 773e e8d6 353d 48f9 4bbe
000000e0: e155 203e c046 7b3e 926f 093f 9152 583c
000000f0: 6eed fcbd 4907 083e b21b ef3e 630f b43e
00000100: c1a5 b8be 393e 95be a874 a03d 9a5c 0c3f
00000110: bef2 993e 3e91 20be 1180 97bd 1fcf f33d
00000120: 8ec8 103f e9be 1a3e 8e0c a0be b734 02be
00000130: 4b9d acbe aea8 20bf fe4d 24be fb2a a33e
00000140: 8c6c b0be d337 ecbe cf73 05bf 1521 0f3d
00000150: 114c 213f ecaf b6be dd87 f3be 5396 95bd
00000160: eb62 f53e 677f 163f b0bf 2bbe 307f aa3c
00000170: f195 fc3e ea7b 4a3f a53d 843e 68f4 373e
00000180: ac39 d53e 30c6 013f 6bbd ba3e e85c 103e
00000190: 9eeb dd3e 7350 2e3f b62f b63e 678a e63e
000001a0: 332b f53d b08b 0f3f e975 963e 190a df3d
000001b0: 37c2 2bbe a90a 9fbd b6de 7f3e 7179 7cbe
000001c0: 51bf 1fbf d656 ffbe cafd b2be 7dac c4bd
000001d0: a094 1ebf df7f eebe 033f 0dbf 1245 7fbe
000001e0: f983 15be e96b ffbe a457 11be 3783 993d
000001f0: f824 ea3c 2431 d8bd 739d 3abd ec48 cd3d
00000200: 0986 9a3d 4cb9 0f3d 1808 09be c304 e83d
00000210: 4a62 9b3e 754d 853e 8a36 d93e b3be 3c3e
00000220: 6859 5e3e da33 9bbd 4a54 873e fb77 f13d
00000230: 8575 86be 4cb5 92be c161 49be dd59 f13d
00000240: 25c2 ac3e 0758 b1be 9010 36be 41b3 00bf
00000250: 78db b6be 2cfd a4bd

C1.bias f4 [6]
-0.40319604 0.47101715 0.13170205 0.47581387 0.105801255 -0.023669371
00000000: b66f cebe 2929 f13e e7dc 063e e09d f33e
00000010: 54ae d83d 45e6 c1bc

C3.weight f4 [16, 6, 5, 5]
-0.16847695 -0.081848316 -0.044874284 0.00917765 -0.14339034 -0.09555919 -0.17434865 -0.1945194
-0.13359387 -0.25924447 -0.015753813 -0.07995361 0.025579296 0.030668585 -0.33287528 0.07133597
0.11358902 0.29518592 0.15967448 -0.1624654 -0.07012823 0.07529262 0.21865726 0.25743702
0.0766188 -0.04648331 0.018444354 -0.052528217 0.023313161 0.07180116 0.08286707 0.10932414
0.07610382 0.064322576 0.0034922548 -0.052115273 -0.12468457 -0.14833821 -0.08831344 0.051671956
0.01731817 -0.13710755 -0.13989022 -0.13386203 -0.08493895 0.06699946 -0.11630183 -0.09340493
-0.04843285 -0.020633146 -0.030077377 -0.057615142 -0.0731913 0.13527812 0.14276238 -0.022429708
-0.07481585 -0.010837249 0.17280975 0.18815903 0.008857397 -0.018870832 0.08496546 0.06903493
0.21242931 0.0015372167 -0.019156285 0.06776479 0.05616633 0.10942763 0.11139816 -0.044663075
-0.05528148 -0.025762253 0.06783324 -0.06969509 -0.06708584 0.002999515 0.008177157 0.121889405
-0.06514344 0.022153756 0.11241027 0.03571652 0.15644497 -0.08942186 0.13605694 -0.041080948
-0.10826411 -0.035330422 -0.053289596 0.011769422 -0.021122238 -0.056443408 -0.134091 0.18271102
0.13216001 0.082991995 -0.015979527 -0.152318 -0.09972029 0.012699895 -0.13104106 -0.06517754
-0.18014762 -0.01900073 0.022205142 -0.087132104 -0.05619434 -0.14997692 0.1557082 0.12308701
0.1275393 -0.07902271 -0.27805272 0.10537372 -0.03535129 0.14031824 0.0910668 -0.049772292
-0.072598025 -0.008716162 0.06699485 -0.0076966113 -0.07827072 0.04400949 0.059556637 0.041792154
0.040667832 -0.04936662 -0.029832812 0.07599381 0.091573425 -0.019927388 -0.046969265 -0.022555444
-0.05195087 -0.04173397 0.12008617 0.12728924 -0.04704706 -0.05484633 -0.13177872 -0.034978572
0.07956437 -0.009753137 -0.10812983 -0.01515231 -0.10085588 -0.015332536 -0.007716407 -0.09261199
-0.11414484 0.013004458 -0.12805183 -0.060111698 -0.093762726 -0.120507605 -0.124749176 -0.3262503
0.0148521485 0.14051864 0.20555879 0.23442172 0.09669022 0.038708407 0.109401 0.21583942
0.15344623 0.10469903 -0.098945476 -0.10870556 -0.08856724 0.020276481 0.080632865 0.01890731
0.07214575 0.043041226 0.1174628 0.06940702 0.065673254 0.018112976 0.0035753965 -0.012074911
-0.007107673 -0.035784524 -0.13739534 -0.18759653 -0.19519289 -0.27375087 -0.14779253 -0.0032658982
-0.10460978 -0.03284854 -0.103757486 -0.10591482 -0.080393575 -0.07657117 -0.00979329 -0.040545486
-0.06835932 0.066723295 -0.05206688 0.05674855 0.07284611 0.0063198376 -0.01909993 0.052182138
0.097072765 0.07170922 -0.10555297 0.007663942 0.029571295 0.03615802 0.033503044 -0.019710764
0.006779532 0.080320716 -0.019040588 -0.03846129 0.00034319054 0.051806543 0.06472743 0.052110728
-0.016194561 -0.17568876 0.01616541 0.17086826 0.2673462 0.19921073 -0.02718811 0.046493907
-0.006271547 -0.061493304 -0.01086133 -0.06663276 -0.06486417 -0.08037121 -0.09873873 -0.049259234
0.06854487 0.027922941 0.11661589 0.02830083 0.0177692 0.039899647 0.011615183 -0.038929857
-0.07039349 0.011580252 -0.052936185 -0.118795335 -0.28022903 -0.2571513 -0.20039918 -0.12592214
00000000: 3985 2cbe 17a0 a7bd 19ce 37bd db5d 163c
00000010: ebd4 12be 89b4 c3bd 7488 32be 1830 47be
00000020: d5cc 08be b1bb 84be 240e 81bc b8be a3bd
00000030: ac8b d13c af3c fb3c a16e aabe 9818 923d
00000040: 5ca1 e83d 9c22 973e b581 233e 545d 26be
00000050: 649f 8fbd 0433 9a3d b0e7 5f3e c9ce 833e
00000060: 51ea 9c3d 4965 3ebd 9d18 973c d427 57bd
00000070: 3efb be3c 7d0c 933d 36b6 a93d 56e5 df3d
00000080: 52dc 9b3d 8ebb 833d 50de 643b d376 55bd
00000090: a05a ffbd f9e5 17be addd b4bd f9a5 533d
000000a0: d6de 8d3c ec65 0cbe 623f 0fbe 2113 09be
000000b0: 79f4 adbd 0337 893d a72f eebd 154b bfbd
000000c0: 8661 46bd d806 a9bc d564 f6bc dbfd 6bbd
000000d0: 52e5 95bd 5986 0a3e 4d30 123e 82be b7bc
000000e0: 0d39 99bd b88e 31bc 0af5 303e c3ac 403e
000000f0: 9e1e 113c 0197 9abc 5f02 ae3d 2f62 8d3d
00000100: 1287 593e 6f7c c93a a4ed 9cbc 44c8 8a3d
00000110: aa0e 663d 981b e03d b824 e43d a1f0 36bd
00000120: d56e 62bd 5c0b d3bc 27ec 8a3d 4dbc 8ebd
00000130: 4d64 89bd 8393 443b 7bf9 053c 27a1 f93d
00000140: ed69 85bd cb7b b53c 5b37 e63d 7c4b 123d
00000150: 1c33 203e cf22 b7bd 8352 0b3e 7f44 28bd
00000160: 93b9 ddbd a2b6 10bd 3146 5abd 89d4 403c
00000170: 8b08 adbc 3431 67bd 274f 09be 9918 3b3e
00000180: f454 073e b5f7 a93d 7fe7 82bc 40f9 1bbe
00000190: 273a ccbd 3813 503c a12f 06be cd7b 85bd
000001a0: 9e78 38be 6ba7 9bbc 8fe7 b53c 5172 b2bd
000001b0: 092c 66bd 8d93 19be f871 1f3e 0b15 fc3d
000001c0: aa99 023e a9d6 a1bd ed5c 8ebe 2dce d73d
000001d0: 84cc 10bd 96af 0f3e 3b81 ba3d 08de 4bbd
000001e0: 46ae 94bd 3cce 0ebc 9934 893d db33 fcbb
000001f0: 664c a0bd 4c43 343d a9f1 733d 402e 2b3d
00000200: 5093 263d a734 4abd f163 f4bc a5a2 9b3d
00000210: d98a bb3d c33e a3bc d862 40bd 32c6 b8bc
00000220: 6fca 54bd 3df1 2abd bdef f53d 1c58 023e
00000230: 6bb4 40bd 8ca6 60bd 00f1 06be b145 0fbd
00000240: a5f2 a23d 9fcb 1fbc 2c73 ddbd 6541 78bc
00000250: 878d cebd 5135 7bbc ead9 fcbb 5bab bdbd
00000260: c5c4 e9bd a610 553c 0520 03be af37 76bd
00000270: ac06 c0bd b1cc f6bd 7f7c ffbd 480a a7be
00000280: 6d56 733c 1ee4 0f3e 017e 523e 3f0c 703e
00000290: 8605 c63d b58c 1e3d a20d e03d 0205 5d3e
000002a0: 0221 1d3e 726c d63d eda3 cabd 05a1 debd
000002b0: be62 b5bd dd1a a63c d822 a53d 81e3 9a3c
000002c0: 27c1 933d ff4b 303d 5690 f03d 4525 8e3d
000002d0: b37f 863d aa61 943c 3351 6a3b d9d5 45bc
000002e0: 7ce7 e8bb cb92 12bd 5db1 0cbe 4e19 40be
000002f0: a5e0 47be 1329 8cbe ed56 17be ae08 56bb
00000300: a73d d6bd 318c 06bd ce7e d4bd dfe9 d8bd
00000310: 63a5 a4bd 58d1 9cbd 0974 20bc 0613 26bd
00000320: f9ff 8bbd 39a6 883d 1544 55bd 2b71 683d
00000330: 5730 953d a416 cf3b 7577 9cbc f0bc 553d
00000340: 16ce c63d 49dc 923d 282c d8bd ce21 fb3b
00000350: 803f f23c 6f1a 143d 7d3a 093d 7878 a1bc
00000360: d626 de3b 307f a43d 02fb 9bbc 9689 1dbd
00000370: 41ee b339 1933 543d d18f 843d 0f72 553d
00000380: 75aa 84bc c1e7 33be 526d 843c 17f8 2e3e
00000390: 9ae1 883e e6fd 4b3e 99b9 debc 6570 3e3d
000003a0: 8d81 cdbb 67e0 7bbd b8f3 31bc c276 88bd
000003b0: 82d7 84bd a999 a4bd 8837 cabd 0dc4 49bd
000003c0: 4161 8c3d a7be e43c 50d4 ee3d 24d7 e73c
000003d0: b790 913c d06d 233d 9c4d 3e3c ea74 1fbd
000003e0: 762a 90bd 19bb 3d3c 9dd3 58bd f84a f3bd
000003f0: 2e7a 8fbe 56a9 83be 7135 4dbe bcf1 00be

C3.bias f4 [16]
-0.03375692 0.049832873 0.028367069 -0.04246705 0.03022911 0.13523677 -0.0013564732 -0.02324156
-0.0025167558 0.04382909 -0.021909237 0.05969575 0.0062302826 0.039580867 0.07277246 -0.039975982
00000000: b244 0abd 8e1d 4c3d 0e62 e83c eef1 2dbd
00000010: 0aa3 f73c 827b 0a3e b0cb b1ba 1665 bebc
00000020: 28f0 24bb 2286 333d 007b b3bc 8883 743d
00000030: 6627 cc3b 8c1f 223d ba09 953d dbbd 23bd

F5.weight f4 [120, 256]
0.022803158 0.01408988 -0.042464416 -0.023117201 -0.027369007 0.04397867 -0.03627775 -0.12357473
-0.018436534 0.14436457 -0.0024770312 0.008496039 -0.04686353 0.008898022 0.11817573 -0.017579766
-0.0004147814 -0.045736082 0.02490372 -0.108879045 0.014869986 -0.06670227 0.01900425 -0.02251643
0.033534806 -0.002306521 -0.04062879 0.012564148 0.07471192 0.009689978 -0.038023572 -0.05092814
0.12644593 0.055863332 0.09114731 -0.0339281 0.008263626 -0.04444055 0.03376497 0.009740581
0.014050973 0.039920267 -0.0409565 0.019793872 0.06259228 0.056199927 0.07032765 -0.09592185
-0.008026495 -0.007080538 -0.046515364 0.02081475 0.02356286 -0.072241 0.0059617553 0.0043755434
0.0021044202 -0.030720733 -0.01233725 0.012514007 -0.043937586 -0.04955665 0.052513257 0.07187172
-0.020861618 -0.037309486 0.039045587 -0.05522537 -0.115129985 0.011957203 0.057526592 -0.09249304
-0.15100762 0.006313909 -0.08193166 -0.11754044 -0.050281104 0.011044922 0.07819017 0.12647675
-0.022125665 -0.0713267 -0.1502157 -0.019041866 0.0047766333 -0.061057232 0.045369137 -0.09924598
0.032829385 -0.0038812363 -0.06739594 -0.014270217 0.0020484535 0.02103944 0.1211415 0.16273114
0.11474239 0.07138796 -0.007332334 -0.030195614 0.02713505 0.05645133 -0.114310905 -0.03358362
0.056539703 0.031010775 0.09367092 0.08516085 0.025422722 0.035247233 0.026521726 -0.0058019813
-0.03510333 0.0038377128 -0.013405906 0.062497243 -0.064379394 0.0059376596 0.058742363 0.021054294
-0.05622607 0.04095918 -0.01046412 -0.06392363 -0.027189415 0.083185054 0.03493205 0.02321243
-0.033339687 -0.037490312 0.051500026 0.034165643 0.053353798 0.02827538 -0.0014697466 0.016909739
-0.039506093 0.030753547 -0.035622176 -0.013787836 0.026287409 0.027524497 0.01052419 0.05238474
-0.03235188 -0.040868625 0.054946184 -0.004105497 -0.0036521873 -0.12117406 -0.0065403148 0.043229666
0.036856186 -0.10513023 0.0791854 0.12961127 0.12635429 0.12120957 0.01565524 -0.079931416
-0.010707447 -0.05840363 0.08573598 0.0030986893 -0.034290474 -0.11810588 0.1158456 0.03879498
-0.018098904 -0.098664075 0.056607902 0.07007527 0.04451419 -0.02741696 0.025749976 0.022496384
-0.0329689 0.04231342 -0.054953486 -0.09673689 -0.053221848 -0.019158216 0.036585663 -0.05130844
0.012160464 0.050578587 0.02146211 -0.026572078 0.064669326 0.06576196 0.04761733 0.09770603
0.035819095 -0.00054412097 -0.016450785 0.010813945 0.011225486 -0.016561491 0.07986818 -0.022767507
-0.063085675 0.05603039 -0.055346683 -0.062620014 0.067835815 -0.06548439 -0.088980846 -0.06279525
-0.019425118 -0.08605792 -0.043364353 -0.1262086 0.060575936 0.0866423 -0.08133432 -0.07907955
-0.0021976372 -0.0152977025 -0.032915648 -0.07496445 0.019596796 -0.0035870988 -0.058539167 0.09117063
0.051320598 0.01796404 0.023753341 -0.072221465 0.0022797708 -0.008829154 0.04591619 0.013196404
-0.01663519 -0.049948685 -0.024087474 0.04250035 0.071345404 0.07166726 -0.050786994 0.041254684
-0.087260656 -0.07363393 0.1032097 0.080803476 -0.09384165 -0.04687548 0.012590544 0.09999652
0.00027439508 -0.025753137 0.024845947 0.06354314 0.023497326 0.003826872 -0.12944458 0.021096293
00000000: b0cd ba3c 3dd9 663c 2bef 2dbd 4960 bdbc
00000010: f834 e0bc fa22 343d fa97 14bd bf14 fdbd
00000020: 3708 97bc 4ed4 133e b055 22bb f832 0b3c
00000030: f9f3 3fbd 02c9 113c 1e06 f23d 7103 90bc
00000040: 0477 d9b9 c255 3bbd e302 cc3c fafb debd
00000050: 3ea1 733c 339b 88bd cdae 9b3c 6074 b8bc
00000060: cb5b 093d 0029 17bb 606a 26bd dbd9 4d3c
00000070: 9002 993d b7c2 1e3c 9bbe 1bbd 069a 50bd
00000080: 0b7b 013e f3d0 643d 71ab ba3d 31f8 0abd
00000090: 2964 073c 4b07 36bd 234d 0a3d f596 1f3c
000000a0: 0d36 663c 6f83 233d 01c2 27bd c226 a23c
000000b0: 6230 803d e531 663d f107 903d ad72 c4bd
000000c0: 8f81 03bc dc03 e8bb e586 3ebd b283 aa3c
000000d0: e606 c13c 17f3 93bd d45a c33b b860 8f3b
000000e0: 50ea 093b 0caa fbbc 2d22 4abc 8d07 4d3c
000000f0: e6f7 33bd eafb 4abd 2418 573d 7b31 933d
00000100: fce5 aabc d5d1 18bd 44ee 1f3d ff33 62bd
00000110: 45c9 ebbd 25e8 433c 01a1 6b3d fe6c bdbd
00000120: bea1 1abe e8e4 ce3b c9cb a7bd 0bb9 f0bd
00000130: 8ff3 4dbd c3f5 343c 2b22 a03d 1f83 013e
00000140: e240 b5bc bc13 92bd 25d2 19be b0fd 9bbc
00000150: 4e85 9c3b 2617 7abd fdd4 393d 7a41 cbbd
00000160: 1b78 063d 575c 7ebb e206 8abd a1cd 69bc
00000170: 593f 063b e75a ac3c 0919 f83d fea2 263e
00000180: 0ffe ea3d da33 923d 1344 f0bb cb5c f7bc
00000190: 534a de3c 8339 673d d61b eabd fa8e 09bd
000001a0: 2d96 673d 4f0a fe3c 8ad6 bf3d d068 ae3d
000001b0: 5043 d03c 675f 103d 1744 d93c 8c1e bebb
000001c0: 82c8 0fbd 2382 7b3b 72a4 5bbc 1cfd 7f3d
000001d0: 58d9 83bd b390 c23b d59b 703d 0e7a ac3c
000001e0: 4f4d 66bd d0c4 273d b371 2bbc 64ea 82bd
000001f0: 56bc debc ed5c aa3d e914 0f3d fe27 be3c
00000200: 328f 08bd 718f 19bd b1f1 523d 46f1 0b3d
00000210: 8389 5a3d c5a1 e73c 83a4 c0ba 4b86 8a3c
00000220: 24d1 21bd ddee fb3c 8fe8 11bd 60e6 61bc
00000230: b158 d73c 0e7b e13c a76d 2c3c 6291 563d
00000240: 6883 04bd dc65 27bd 400f 613d 6887 86bb
00000250: 8959 6fbb 1b2a f8bd 2350 d6bb 9711 313d
00000260: 83f6 163d 854e d7bd f42b a23d d1b8 043e
00000270: 0563 013e b93c f83d 6b3f 803c 15b3 a3bd
00000280: 4a6e 2fbc a538 6fbd 5896 af3d 6113 4b3b
00000290: 2b74 0cbd 7fe1 f1bd 7540 ed3d 7ce7 1e3d
000002a0: 2744 94bc 6410 cabd b0dd 673d a083 8f3d
000002b0: 8354 363d 8899 e0bc 9df1 d23c 564a b83c
000002c0: 660a 07bd d650 2d3d e816 61bd fe1d c6bd
000002d0: 27ff 59bd b1f1 9cbc d9da 153d cc28 52bd
000002e0: af3c 473c 7e2b 4f3d 4fd1 af3c b0ad d9bc
000002f0: 5a71 843d 35ae 863d 640a 433d 191a c83d
00000300: 0bb7 123d 57a3 0eba ccc3 86bc f92c 313c
00000310: 1aeb 373c f7ab 87bc ee91 a33d ec82 babc
00000320: 1033 81bd 1f80 653d 34b3 62bd ec3e 80bd
00000330: 81ed 8a3d ae1c 86bd 973b b6bd cc9a 80bd
00000340: 6d21 9fbc 223f b0bd d29e 31bd d43c 01be
00000350: 791e 783d 8571 b13d 9c92 a6bd 76f4 a1bd
00000360: 3c06 10bb 37a3 7abc 8fd2 06bd f686 99bd
00000370: 7689 a03c 8815 6bbb c4c6 6fbd abb7 ba3d
00000380: 8c35 523d 5329 933c 5e96 c23c d9e8 93bd
00000390: 3568 153b 28a8 10bc 9d12 3c3d bb35 583c
000003a0: 8646 88bc fe96 4cbd 1853 c5bc d914 2e3d
000003b0: 8a1d 923d 49c6 923d 0606 50bd acfa 283d
000003c0: b7b5 b2bd 63cd 96bd 9b5f d33d 4b7c a53d
000003d0: 0d30 c0bd 8100 40bd 9248 4e3c faca cc3d
000003e0: afdc 8f39 3ef8 d2bc ba89 cb3c e822 823d
000003f0: 777d c03c 42cc 7a3b 1f8d 04be 22d2 ac3c

F5.bias f4 [120]
0.017479332 -0.07477199 -0.0425859 -0.028642973 0.03482873 -0.010899437 -0.017219301 -0.020387622
-0.011267984 -0.004649845 -0.048560396 0.008004864 -0.016742479 -0.028332928 -0.059074983 0.03637346
0.04903539 0.0002647307 0.061538804 0.05690616 0.0099824825 -0.06926507 0.025840657 0.057124376
0.053504985 -0.018203072 -0.019975236 0.013529654 0.057850838 0.043469593 -0.031141192 0.055748843
0.018167647 0.04928492 -0.016178306 0.0014298846 -0.017727185 0.04820352 -0.022054888 -0.036990676
0.025635257 0.028979246 0.03729503 0.025496654 -0.07599725 0.013682658 0.02499356 -0.023547618
0.0040347804 -0.019850265 0.06708676 -0.05449533 0.012368006 0.0025465924 -0.012725891 0.022342974
-0.014609923 0.05951879 0.02798361 0.0217555 0.043103352 0.06472798 -0.03748351 -0.041674912
-0.06175922 0.030252496 0.035873123 -0.052346785 0.027389934 -0.013844925 -0.03112944 -0.015638571
0.09676294 -0.0067656026 -0.016771428 0.0027496268 0.036473714 0.04236557 0.08498816 -0.0014934078
-0.049128633 0.043360915 -0.013233002 0.052881867 -0.011208279 0.02470371 -0.043826733 -0.059959847
-0.04222905 -0.0020708526 0.032505453 0.015487736 0.06695021 0.04289006 0.0068303435 0.0077849817
0.0460459 -0.0398426 -0.003035947 -0.07202576 0.044194218 0.07664348 0.04175283 -0.023374358
0.018016784 -0.03634618 -0.0724743 0.02572859 -0.01609637 0.060631678 0.07255202 -0.022461059
0.05518292 0.028600961 0.021668531 0.07054168 -0.04861419 -0.004140042 -0.07539565 -0.02138194
00000000: d130 8f3c 0f22 99bd 8d6e 2ebd aba4 eabc
00000010: 92a8 0e3d 8d93 32bc 7e0f 8dbc f103 a7bc
00000020: 5a9d 38bc ba5d 98bb 44e7 46bd d526 033c
00000030: 8627 89bc 751a e8bc 9cf8 71bd 56fc 143d
00000040: 55d9 483d 8ecb 8a39 1d10 7c3d 6f16 693d
00000050: 918d 233c d8da 8dbd c9af d33c 40fb 693d
00000060: 0b28 5b3d 9c1e 95bc 1ba3 a3bc 7bab 5d3c
00000070: 00f5 6c3d 2c0d 323d d01b ffbc e658 643d
00000080: 51d4 943c fcde 493d 5e88 84bc f76a bb3a
00000090: 9a38 91bc 0e71 453d 74ac b4bc 8983 17bd
000000a0: 0801 d23c e265 ed3c acc2 183d 5cde d03c
000000b0: 72a4 9bbd 3a2d 603c 4bbf cc3c efe6 c0bc
000000c0: 3136 843b 069d a2bc c964 893d 7f36 5fbd
000000d0: 2da3 4a3c bbe4 263b 4180 50bc 9d08 b73c
000000e0: 755e 6fbc fac9 733d e23d e53c 9738 b23c
000000f0: 248d 303d 1a90 843d 4f88 19bd 50b3 2abd
00000100: 3cf7 7cbd 15d4 f73c b2ef 123d 9569 56bd
00000110: db60 e03c d3d5 62bc 2b03 ffbc 761c 80bc
00000120: a62b c63d fdb1 ddbb 3c64 89bc 1533 343b
00000130: 7665 153d 8587 2d3d 460e ae3d 73be c3ba
00000140: 1b3b 49bd 379b 313d 3ccf 58bc a89a 583d
00000150: eea2 37bc 6f5f ca3c a983 33bd 7598 75bd
00000160: 5ef8 2cbd 24b7 07bb 7024 053d 46c0 7d3c
00000170: 311d 893d 7dad 2f3d 13d1 df3b 2919 ff3b
00000180: a09a 3c3d fe31 23bd bdf6 46bb 3e82 93bd
00000190: ff04 353d 42f7 9c3d 0405 2b3d 957b bfbc
000001a0: ef97 933c bbdf 14bd 686d 94bd c4c4 d23c
000001b0: 89dc 83bc ec58 783d 2796 943d 4100 b8bc
000001c0: 7c07 623d 904c ea3c 3482 b13c 2878 903d
000001d0: ac1f 47bd 30a9 87bb 0969 9abd 2e29 afbc

F6.weight f4 [84, 120]
0.06946487 0.10936419 -0.012660946 0.061270103 0.085703135 0.06947672 0.08771916 0.008437396
0.043725956 0.13110101 0.05675388 0.032483686 -0.019554447 0.02591277 0.07920388 0.07810244
-0.039576992 0.08906335 -0.05109594 0.025297565 0.07629187 0.064826965 -0.04809989 -0.06695705
-0.050677177 0.0660388 0.027314335 0.084636666 -0.029574377 0.07729608 -0.088700235 -0.0343838
-0.03179159 0.009952097 0.004280321 0.060984053 0.02334181 -0.13029309 -0.03294526 -0.013283838
-0.10017964 0.035506386 -0.06318145 -0.062031083 0.096453376 -0.029700609 -0.0010751435 0.06286292
-0.022790689 0.010970436 0.008647755 0.0077476916 0.055655196 0.004518152 0.0020705834 0.078990884
-0.095292814 0.086322874 -0.05225485 0.02811932 -0.07630549 -0.06762286 -0.036852587 0.03027409
0.008960997 -0.005537935 -0.021205703 -0.018962458 0.026185371 -0.031806502 0.066073924 0.0476597
-0.08093153 -0.035638634 0.0004738039 -0.06672263 -0.0078518335 -0.008376783 -0.19444165 -0.009751791
0.0395372 0.09683391 0.04292156 0.11516454 0.06137147 -0.033801477 0.0829261 0.1251846
-0.04260828 0.09074804 -0.070484035 0.0009709663 -0.04340875 -0.12269508 0.14890976 0.020352148
-0.024883043 -0.011863611 -0.023217866 0.13011657 0.1439346 0.113834284 0.008629915 -0.05323151
-0.014127828 -0.00071603636 0.05358611 0.073859915 0.09352731 0.05684538 -0.04830791 -0.20106587
0.028409759 0.01709799 0.08231854 -0.054847937 -0.0555587 -0.0496625 -0.059466165 -0.16541922
-0.046323217 -0.07207381 0.14484288 -0.062770896 0.08223355 0.048324008 0.037971076 -0.012552995
-0.023633374 0.030863067 -0.057821564 0.019169366 -0.08634359 -0.12783927 -0.09835869 -0.07971449
0.04547007 -0.02715653 -0.16455917 -0.056442294 0.047688995 -0.06899709 0.11910374 0.057323072
0.03807006 -0.11492727 -0.15756683 -0.08895995 0.021939363 0.14320576 -0.05942589 -0.0003950018
0.06627633 -0.0032617159 0.063687034 0.07494247 -0.16225964 -0.00046404218 0.041157514 -0.037721783
-0.025423823 0.018514274 -0.013231255 -0.0256309 -0.13845174 -0.010181278 -0.07356278 0.11059691
0.051232994 0.04297761 0.03292894 -0.0025154408 -0.06128671 -0.11808261 -0.11588547 0.011505589
0.115659945 0.059952315 -0.016561674 -0.013567179 -0.133997 -0.013149788 0.107432164 0.020562105
-0.06900605 -0.06551559 -0.14417714 -0.03801897 -0.09222592 0.025727605 -0.03751189 0.21318585
-0.060339257 0.08354948 0.05852753 -0.12946829 0.043614484 0.0773203 0.020145075 -0.11681753
0.009050691 -0.016447915 0.008585181 0.13964956 -0.07683909 -0.08994027 -0.08589916 0.0126332445
0.027175875 0.031353433 0.11403655 -0.07318492 0.13411337 0.03912604 0.015238055 0.082066655
-0.022108702 0.00946153 0.029408759 -0.14344324 0.17344713 0.025146661 0.009462299 -0.18746784
-0.019423598 0.13053311 0.099854946 -0.011814041 0.05625322 -0.060510084 0.0025186306 0.1739747
0.13555247 0.028587013 -0.037260257 -0.12242195 0.020949375 -0.047054484 0.040032495 -0.05268175
-0.13524656 -0.17373247 0.091157325 0.035091136 -0.0027599968 -0.07932846 -0.0129935155 -0.05895285
-0.044243116 -0.004387588 -0.0034321868 -0.02560187 0.03270129 0.04346825 -0.15586993 0.11159272
00000000: 9943 8e3d 55fa df3d db6f 4fbc 5cf6 7a3d
00000010: 2085 af3d d049 8e3d 1aa6 b33d 013d 0a3c
00000020: fd19 333d 583f 063e c276 683d 9d0d 053d
00000030: a630 a0bc 0447 d43c a535 a23d 2cf4 9f3d
00000040: 7c1b 22bd d866 b63d fa49 51bd d73c cf3c
00000050: e93e 9c3d 00c4 843d 6404 45bd c720 89bd
00000060: df92 4fbd 5a3f 873d 50c2 df3c fd55 ad3d
00000070: f745 f2bc 684d 9e3d 78a8 b5bd 07d6 0cbd
00000080: e637 02bd 1f0e 233c ef41 8c3b 6aca 793d
00000090: 5337 bf3c 8d6b 05be 9cf1 06bd 74a4 59bc
000000a0: fc2a cdbd 256f 113d 4765 81bd 4e14 7ebd
000000b0: 5989 c53d b14e f3bc d4eb 8cba 46be 803d
000000c0: 8ab3 babc 58bd 333c 50af 0d3c 59e0 fd3b
000000d0: b4f6 633d 020d 943b a0b2 073b f9c5 a13d
000000e0: e128 c3bd 0cca b03d 2e09 56bd 7d5a e63c
000000f0: 0e46 9cbd db7d 8abd bdf2 16bd 5e01 f83c
00000100: 25d1 123c 9177 b5bb 95b7 adbc 2857 9bbc
00000110: b482 d63c 8947 02bd c451 873d d136 433d
00000120: 6ebf a5bd d1f9 11bd e268 f839 e0a5 88bd
00000130: faa4 00bc c63e 09bc b61b 47be fac5 1fbc
00000140: c2f1 213d db50 c63d 85ce 2f3d 63db eb3d
00000150: a760 7b3d 6b73 0abd 29d5 a93d 6430 003e
00000160: 0586 2ebd 1cda b93d ef59 90bd 7288 7e3a
00000170: 60cd 31bd 8f47 fbbd cd7b 183e 8cb9 a63c
00000180: 86d7 cbbc 975f 42bc 6533 bebc 473d 053e
00000190: 9763 133e f321 e93d 7d64 0d3c 4909 5abd
000001a0: 6878 67bc 63b4 3bba 1c7d 5b3d de43 973d
000001b0: 3f8b bf3d b4d6 683d 84de 45bd 36e4 4dbe
000001c0: 95bb e83c 1511 8c3c 9f96 a83d 3ba8 60bd
000001d0: 8591 63bd e86a 4bbd cb92 73bd a863 29be
000001e0: 6abd 3dbd 6f9b 93bd b151 143e 078e 80bd
000001f0: 106a a83d 65ef 453d 8f87 1b3d 14ab 4dbc
00000200: c79a c1bc 8bd4 fc3c 4ed6 6cbd 1309 9d3c
00000210: e8d4 b0bd 4ce8 02be 4870 c9bd 5a41 a3bd
00000220: d33e 3a3d 5f77 debc 3382 28be 0930 67bd
00000230: 8955 433d 594e 8dbd a9ec f33d 99cb 6a3d
00000240: 5aef 1b3d fd5e ebbd 3359 21be a230 b6bd
00000250: 2eba b33c 88a4 123e 9068 73bd 3f18 cfb9
00000260: e2bb 873d 83c2 55bb 596e 823d 707b 993d
00000270: 6427 26be b04a f3b9 c894 283d 2882 1abd
00000280: 9f45 d0bc 3fab 973c e8c7 58bc e5f7 d1bc
00000290: 4bc6 0dbe 60cf 26bc 15a8 96bd a280 e23d
000002a0: b0d9 513d 4a09 303d 7fe0 063d 18da 24bb
000002b0: c607 7bbd 4cd5 f1bd 5c55 edbd f081 3c3c
000002c0: 1fdf ec3d 8f90 753d 59ac 87bc e048 5ebc
000002d0: 8236 09be 3572 57bc 6505 dc3d dc71 a83c
000002e0: 0b53 8dbd 0a2d 86bd 2ca3 13be c8b9 1bbd
000002f0: f1e0 bcbd b3c2 d23c 11a6 19bd 644d 5a3e
00000300: 4c26 77bd fd1b ab3d 90ba 6f3d 5693 04be
00000310: 1aa5 323d 1b5a 9e3d 4907 a53c 073e efbd
00000320: 5949 143c c7bd 86bc dca8 0c3c 4b00 0f3e
00000330: d05d 9dbd 9b32 b8bd e6eb afbd abfb 4e3c
00000340: f19f de3c 756c 003d ff8b e93d fae1 95bd
00000350: 0455 093e a042 203d 09a9 793c 9012 a83d
00000360: 4f1d b5bc 8804 1b3c a3ea f03c c9e2 12be
00000370: 209c 313e 5f00 ce3c c207 1b3c 92f7 3fbe
00000380: 3d1e 9fbc 79aa 053e c080 cc3d ae8f 41bc
00000390: c769 663d 6cd9 77bd 9c0f 253b 6c26 323e
000003a0: 44ce 0a3e 502f ea3c 369e 18bd 5cb8 fabd
000003b0: 069e ab3c 34bc 40bd 1df9 233d d2c8 57bd
000003c0: 137e 0abe ede6 31be b1b0 ba3d b9bb 0f3d
000003d0: 10e1 34bb f676 a2bd c1e2 54bc 8b78 71bd
000003e0: 4538 35bd c1c5 8fbb 8aee 60bb 03bb d1bc
000003f0: caf1 053d c40b 323d 5e9c 1fbe b98a e43d

F6.bias f4 [84]
-0.0395504 0.1152018 0.025597692 0.023174854 -0.0035039831 -0.004609228 -0.03400615 -0.027419165
-0.0069924733 -0.01834643 -0.041711263 0.10040915 0.065552846 -0.10709249 -0.053409074 -0.10307954
0.103161834 -0.029066814 -0.015246493 -0.026370179 -0.05117573 -0.02589246 0.08388831 -0.014844304
-0.07295351 0.10421394 0.005199665 -0.10096914 0.1343218 0.04925685 -0.0446875 0.0012170358
-0.07186232 0.09096953 0.057179432 0.10982279 0.11082226 0.016417786 0.058524948 -0.055903476
-0.06948658 0.081806295 -0.0032119253 -0.07951999 0.047182634 -0.019601185 -0.013699334 0.10369777
0.09850759 -0.050160024 0.011338023 0.13205235 -0.023526136 -0.049541537 -0.015964169 0.009526662
-0.01353319 0.0997384 -0.06646553 -0.075335845 0.0015279755 0.09805985 0.059974566 0.01131339
-0.035635512 0.013425903 0.035580296 -0.08378956 0.028804101 -0.014919535 0.09540215 -0.020994224
0.10006123 0.14167078 -0.07778462 -0.06800236 0.07165569 0.12201167 0.0004623067 -0.0007400241
0.10004852 0.03881859 -0.012949395 0.101470694
00000000: 9aff 21bd ecee eb3d 40b2 d13c 31d9 bd3c
00000010: 15a3 65bb 0209 97bb 084a 0bbd 289e e0bc
00000020: 1e21 e5bb 414b 96bc 6ed9 2abd 50a3 cd3d
00000030: 9240 863d 4f53 dbbd 79c3 5abd 5e1b d3bd
00000040: 8346 d33d 871d eebc 6dcc 79bc 4606 d8bc
00000050: a49d 51bd 6d1c d4bc a2cd ab3d 8635 73bc
00000060: a668 95bd 1e6e d53d f461 aa3b e9c8 cebd
00000070: a78b 093e 8dc1 493d 3d0a 37bd f284 9f3a
00000080: 8d2c 93bd 3c4e ba3d fb34 6a3d c5ea e03d
00000090: c8f6 e23d 987e 863c dbb7 6f3d 0bfb 64bd
000000a0: fb4e 8ebd 0f8a a73d 2a7f 52bb 60db a2bd
000000b0: 9442 413d aa92 a0bc 2c73 60bc 7f5f d43d
000000c0: 59be c93d 9974 4dbd 1dc3 393c bb38 073e
000000d0: e2b9 c0bc 11ec 4abd 4ac7 82bc b715 1c3c
000000e0: 50ba 5dbc a543 cc3d 141f 88bd ae49 9abd
000000f0: 5a46 c83a 9ad3 c83d e4a7 753d cc5b 393c
00000100: 8bf6 11bd 52f8 5b3c a5bc 113d dc99 abbd
00000110: 94f6 eb3c 1171 74bc 3462 c33d 14fc abbc
00000120: e7ec cc3d 2512 113e 8b4d 9fbd d244 8bbd
00000130: 38c0 923d 41e1 f93d c161 f239 2dfe 41ba
00000140: 3de6 cc3d 3e00 1f3d b329 54bc decf cf3d

output.weight f4 [10, 84]
-0.23455566 -0.15029182 0.35571054 -0.027568797 0.016660243 -0.008419352 0.09212258 -0.0054141697
-0.12741724 -0.21216163 -0.14367422 -0.16663027 -0.055835318 -0.08545984 0.033258658 0.040109158
-0.21935512 0.039008673 0.011604917 0.19671774 0.10408861 0.037045553 0.19202705 0.6015122
0.2261014 -0.23636295 0.050446976 0.072210394 0.026830165 -0.069508664 0.044169314 -0.026694102
-0.14167719 -0.4230477 0.25858223 -0.25515038 0.24822031 -0.059640482 -0.32429293 -0.04606851
-0.004058084 -0.002372006 0.11247188 0.023918565 -0.011009592 -0.09618835 0.029070813 -0.395303
0.272259 -0.08986491 0.029925684 -0.2929962 0.0893365 -0.04724956 -0.09164399 -0.21751808
-0.12999183 0.04850431 -0.10640367 0.072884426 0.056735743 0.12238508 0.020546373 -0.023450723
-0.21864505 0.15153359 -0.008505805 0.05806249 0.2318423 0.031086545 0.12978116 -0.0624414
-0.23832953 0.33376262 -0.05131188 -0.09165653 -0.3306228 -0.13051167 -0.021493481 0.01022756
-0.3559396 -0.280177 0.2722917 -0.16202334 0.14477804 -0.27126715 0.013297579 -0.008886721
0.06986008 -0.000450221 -0.23045594 0.05356587 -0.0003023035 -0.050552204 -0.017583579 0.06710414
0.32899922 0.14373636 0.0050215614 -0.0716302 -0.2376344 -0.15142474 -0.12459104 -0.21735883
-0.0860939 -0.066758096 0.015034871 -0.17289637 0.14985035 -0.1980745 0.15334736 0.2010184
-0.17010534 0.16620497 0.18908143 0.032671444 -0.09083171 -0.20277818 -0.18023019 0.26708263
-0.13124683 -0.05778481 0.14262456 -0.025495427 -0.019910669 -0.08513927 0.1377325 0.011818354
0.2355308 -0.0230404 0.015501499 0.3520812 -0.15522265 -0.031973273 -0.10458634 0.19805512
-0.2914681 0.023481421 -0.0144475745 -0.271165 0.031440083 -0.20848025 0.043638386 0.09778317
0.010545467 0.30093327 -0.22813052 -0.16927226 -0.04685916 -0.4286098 0.21375777 -0.033690006
-0.15388213 0.002076171 0.06520282 -0.003005282 0.10255203 -0.41145283 -0.04713528 -0.09281508
0.3029436 -0.08705063 -0.050735377 -0.058537584 0.3836836 -0.18748462 0.3275962 0.12466724
-0.10398253 0.020795373 -0.26363376 0.005687732 -0.027205702 0.18926007 0.40008608 -0.040029593
0.118457995 0.0034589584 0.08683111 -0.18311468 -0.113888174 -0.19963948 -0.044939652 0.0669945
0.12609065 0.004921208 0.06831774 -0.24387437 0.17984055 0.15671386 -0.22077933 -0.40793827
0.09085142 0.10952434 -0.2517215 0.1412426 -0.018266017 -0.27480716 -0.0428623 -0.47801113
0.16233687 -0.16433753 0.033681974 -0.048300277 0.18017377 0.15312721 -0.30221635 0.03668102
-0.2489736 -0.024353592 0.2759185 0.12677157 0.17428473 0.0039776135 0.07675245 0.24945554
0.20500197 0.12957281 0.09450148 0.3164593 0.010154053 -0.041732185 -0.45497763 0.38025168
0.04003143 -0.23057969 0.050207816 0.14641507 0.03702283 0.035376605 -0.20626672 0.21061249
-0.13518725 0.12983602 -0.08308649 0.09870804 -0.14533402 0.028423855 -0.10583022 -0.05573311
-0.1015514 0.32491347 -0.023329385 0.08513029 -0.283926 -0.088091284 0.14407517 -0.088653654
0.4374493 -0.075582 0.3479239 -0.2887467 -0.22903529 0.27030027 -0.3411507 0.10481487
00000000: 5c2f 70be 19e6 19be b11f b63e f5d7 e1bc
00000010: 107b 883c 52f1 09bc c3aa bc3d 5969 b1bb
00000020: aa79 02be e640 59be 561f 13be 20a1 2abe
00000030: 93b3 64bd 9205 afbd 3b3a 083d 8049 243d
00000040: a19e 60be 8fc7 1f3d 8d22 3e3c 6070 493e
00000050: 692c d53d 14bd 173d bda2 443e b4fc 193f
00000060: 2087 673e 2109 72be 7da1 4e3d 0be3 933d
00000070: efca db3c 8f5a 8ebd e2ea 343d 97ad dabc
00000080: d313 11be b599 d8be e464 843e 12a3 82be
00000090: 772d 7e3e 9449 74bd b909 a6be 55b2 3cbd
000000a0: adf9 84bb a873 1bbb a857 e63d def0 c33c
000000b0: 9361 34bc 66fe c4bd ea25 ee3c 2865 cabe
000000c0: 8865 8b3e 180b b8bd b526 f53c 9903 96be
000000d0: 0ef6 b63d c188 41bd d8af bbbd 0fbd 5ebe
000000e0: 941c 05be 75ac 463d 2bea d9bd 6e44 953d
000000f0: bd63 683d 07a5 fa3d de50 a83c bb1b c0bc
00000100: 7de4 5fbe 9f2b 1b3e ef5b 0bbc efd2 6d3d
00000110: 1168 6d3e 36a9 fe3c 5ae5 043e 8ec2 7fbd
00000120: a80c 74be efe2 aa3e 682c 52bd 6bb6 bbbd
00000130: 6447 a9be daa4 05be 1913 b0bc 7f91 273c
00000140: b73d b6be 5c73 8fbe d169 8b3e 72e9 25be
00000150: b240 143e 87e3 8abe 17de 593c 9c99 11bc
00000160: cd12 8f3d a40b ecb9 a4fc 6bbe e367 5b3d
00000170: 7d7e 9eb9 d40f 4fbd 700b 90bc e56d 893d
00000180: 9672 a83e a02f 133e e98b a43b dbb2 92bd
00000190: 6f56 73be 160f 1bbe 9629 ffbd 5093 5ebe
000001a0: 0052 b0bd 78b8 88bd d254 763c bf0b 31be
000001b0: 5f72 193e 0bd4 4abe 1707 1d3e c4d7 4d3e
000001c0: 1830 2ebe a331 2a3e 909e 413e 7ed2 053d
000001d0: fa05 babd 15a5 4fbe 438e 38be 0ebf 883e
000001e0: 9265 06be c4af 6cbd 2c0c 123e c9db d0bc
000001f0: b31b a3bc 7f5d aebd c009 0d3e c5a1 413c
00000200: fc2e 713e 39bf bcbc 00fa 7d3c fd43 b43e
00000210: b0f2 1ebe 68f6 02bd 5d31 d6bd f6ce 4a3e
00000220: 4f3b 95be 1c5c c03c 85b5 6cbc 24d6 8abe
00000230: 51c7 003d d97b 55be 2abe 323d 8b42 c83d
00000240: e5c6 2c3c ed13 9a3e 0c9b 69be b555 2dbe
00000250: 64ef 3fbd be72 dbbe 51e3 5a3e 88fe 09bd
00000260: 4793 1dbe 5f10 083b 0e89 853d 44f4 44bb
00000270: cc06 d23d f2a9 d2be ec10 41bd d515 bebd
00000280: 6c1b 9b3e 9a47 b2bd e6cf 4fbd 1bc5 6fbd
00000290: 2d72 c43e f8fb 3fbe b0ba a73e 8a51 ff3d
000002a0: cbf4 d4bd 0f5b aa3c 01fb 86be 2760 ba3b
000002b0: 7ede debc 64cd 413e 15d8 cc3e 12f6 23bd
000002c0: 1b9a f23d b1af 623b 82d4 b13d 6a82 3bbe
000002d0: 343e e9bd 4b6e 4cbe a412 38bd 6a34 893d
000002e0: e81d 013e 1642 a13b 2cea 8b3d 34ba 79be
000002f0: 1f28 383e 9979 203e fa13 62be 49dd d0be
00000300: 4f10 ba3d 4c4e e03d a4e1 80be e6a1 103e
00000310: 9da2 95bc 86b3 8cbe 6190 2fbd e0bd f4be
00000320: a33b 263e 1948 28be 1cf6 093d 83d6 45bd
00000330: 797f 383e 61cd 1c3e 1abc 9abe d63e 163d
00000340: eff2 7ebe 2f81 c7bc 3145 8d3e 68d0 013e
00000350: b277 323e a456 823b 6330 9d3d 4671 7f3e
00000360: 09ec 513e bcae 043e fe89 c13d f406 a23e
00000370: 2f5d 263c 5eef 2abd d4f2 e8be 59b0 c23e
00000380: fff7 233d 151d 6cbe b6a6 4d3d d5ed 153e
00000390: 40a5 173d 0fe7 103d 9537 53be cdaa 573e
000003a0: 876e 0abe bcf3 043e 4029 aabd 7127 ca3d
000003b0: 71d2 14be 25d9 e83c 84bd d8bd 6748 64bd
000003c0: 2efa cfbd 0f5b a63e 441d bfbc ca58 ae3d
000003d0: c05e 91be 3469 b4bd 7188 133e 0c90 b5bd
000003e0: 5bf9 df3e bcca 9abd 1523 b23e 9cd6 93be
000003f0: 3a88 6abe cc64 8a3e 4eab aebe 2ea9 d63d

output.bias f4 [10]
-0.08310679 0.025594411 0.017519163 0.056155533 -0.016061822 0.0017064052 -0.06766498 -0.10464375
0.14867319 0.085696496
00000000: e533 aabd 5fab d13c 5984 8f3c 5803 663d
00000010: 1594 83bc 75a9 df3a f093 8abd 764f d6bd
00000020: c93d 183e a581 af3d
