models/mnist_lenet.pt (torch_old, 88700 bytes, 8 tensors)

conv1.weight f4 [10, 1, 5, 5]
0	0xbef655d4	-0.48112357
1	0xbe7de568	-0.24794543
2	0x3eac9134	0.3370453
3	0x3e91a2bf	0.28444478
4	0x3f0ae63a	0.5425755
5	0xbe0fd875	-0.14047416
6	0xbe076576	-0.13222298
7	0xbd9466ff	-0.072462074
8	0x3e4db305	0.20087822
9	0x3e45ba8e	0.19309446
10	0xbe4d112c	-0.20026082
11	0xbea91810	-0.3302617
12	0xbe6902e6	-0.22755012
13	0x3d92bf7d	0.0716543
14	0x3e340e95	0.17583688
15	0xbee226e3	-0.44170293
16	0xbcdefed4	-0.02722112
17	0xbea8bc3f	-0.3295612
18	0xbd0a0dcd	-0.033704568
19	0x3dbc2dc9	0.0918842
20	0xbf0a88c1	-0.5411492
21	0xbebf8ce0	-0.37412167
22	0xbef931d8	-0.4867084
23	0xbe8789cc	-0.26472318
24	0x3ea9838b	0.33108172
25	0x3dd5c778	0.10438436
26	0x3efc06f6	0.4922406
27	0xbdcd5c8c	-0.100274175
28	0x3db638cb	0.08897551
29	0x3ae92e38	0.0017790264
30	0x3c66c58f	0.014085188
31	0x3f0bd1dc	0.54617095
32	0xbe598a4f	-0.21244167
33	0xbdf3f761	-0.11912418
34	0xbe63d428	-0.222489
35	0x3eb50ff4	0.35363734
36	0x3f03d239	0.5149265
37	0xbe408189	-0.18799414
38	0xbec10b64	-0.37704003
39	0xbed90365	-0.42385402
40	0x3f03c064	0.5146544
41	0x3d79392a	0.06084553
42	0xbe711f88	-0.23547184
43	0xbed78665	-0.42094722
44	0xbdb7b08d	-0.08969221
45	0x3e38e15a	0.18054715
46	0x3d3ccf95	0.046096403
47	0x3c616e2f	0.01375918
48	0xbe6f8d83	-0.23393826
49	0xbbbf167c	-0.005831538
50	0xbee0bb3f	-0.43892857
51	0xbeb39b8c	-0.3507961
52	0xbcfd5b25	-0.03092725
53	0x3ddc71c9	0.1076389
54	0x3d8afa68	0.067860425
55	0xbf050134	-0.5195496
56	0xbe09c042	-0.13452247
57	0x3dc4a6a7	0.09602099
58	0x3d5bdc14	0.05367668
59	0x3e5a5b8e	0.21323988
60	0xbeda7d46	-0.426737
61	0xbe15e1db	-0.14636938
62	0xbcafe399	-0.021470832
63	0x3ec326ae	0.38115448
64	0x3e6dadd9	0.23210849
65	0xbedd20d0	-0.43189096
66	0xbeb6d421	-0.35708717
67	0x3e0c768e	0.137171
68	0x3ef43ff5	0.47705045
69	0xbb93ea24	-0.0045139957
70	0xbe263941	-0.16232778
71	0xbe477328	-0.19477522
72	0xbb8a9f0e	-0.0042303866
73	0x3f2ca79e	0.67443264
74	0xbe6cd7bc	-0.23129171
75	0x3dc9d067	0.09854203
76	0xbda3bdb9	-0.07995171
77	0x3d1aae28	0.037763745
78	0x3df24233	0.11829033
79	0x3e8dd6b9	0.27702883
80	0x3ea83645	0.32853904
81	0x3ea10c10	0.31454515
82	0x3ef99018	0.48742747
83	0x3e733595	0.23750909
84	0x3ea2de4d	0.31810227
85	0xbe080d30	-0.1328628
86	0x3e26c908	0.16287625
87	0x3dd7f498	0.105446994
88	0x3e400d8f	0.18755172
89	0xbe049a8a	-0.12949577
90	0xbe39e29c	-0.18152851
91	0xbdcea048	-0.10089165
92	0x3cf10711	0.029422315
93	0xbe974d23	-0.29551038
94	0xbed2f713	-0.41204128
95	0xbebab148	-0.3646338
96	0xbf2b6205	-0.6694644
97	0xbf5818dc	-0.8441293
98	0xbece750f	-0.40323684
99	0xbc41f91a	-0.011839176
100	0xbd69cf13	-0.057082247
101	0xbc9e8723	-0.019351548
102	0x3d852234	0.06500664
103	0x3da20ca4	0.07912567
104	0x3eca661e	0.39531034
105	0x3dcbf7a1	0.09959341
106	0xbf03af3b	-0.51439255
107	0xbf50cd44	-0.8156321
108	0xbf19b494	-0.60041165
109	0x3e6be3a3	0.23036055
110	0x3e7aa4f5	0.24476989
111	0x3e7accaf	0.24492143
112	0xbf1eaf63	-0.6198637
113	0xbf11e874	-0.5699532
114	0xbea9db71	-0.33175233
115	0x3e449ddb	0.19200842
116	0x3f4d8695	0.8028348
117	0x3e8a1400	0.26968384
118	0xbe6b18ee	-0.22958729
119	0xbedd2017	-0.43188545
120	0xbe8c1367	-0.27358553
121	0x3ec24aac	0.37947595
122	0x3ed90471	0.423862
123	0x3efcfc4f	0.49411246
124	0x3dbb6856	0.0915076
125	0xbd8c9dc7	-0.06866031
126	0xbd83fd6d	-0.064448215
127	0xbdbcf697	-0.09226721
128	0x3d39b31f	0.04533684
129	0xbd4e31c9	-0.050340448
130	0xbe7c45ce	-0.24636003
131	0xbea6fb0c	-0.3261341
132	0x3de58b26	0.11208181
133	0x3db9857c	0.09058663
134	0x3d0f2193	0.03494413
135	0xbe388854	-0.18020755
136	0x3dcd5b57	0.10027187
137	0x3e276e66	0.16350707
138	0xbd582db2	-0.052777953
139	0xbd761eb3	-0.06008787
140	0x3eb365ad	0.3503851
141	0x3ecca440	0.39969063
142	0xbe09024d	-0.13379784
143	0xbe4942a3	-0.19654326
144	0xbed3ae00	-0.4134369
145	0x3f1581ee	0.5840138
146	0x3e025509	0.12727751
147	0xbec88467	-0.39163515
148	0xbeb2490e	-0.3482136
149	0xbe65c763	-0.22439341
150	0x3f03c050	0.5146532
151	0x3d72b092	0.05925042
152	0xbe337487	-0.1752492
153	0xbd7dd27c	-0.06196831
154	0xbe5d2d81	-0.2159939
155	0xbc47f167	-0.012203551
156	0xbf01ff13	-0.5077984
157	0xbf097e68	-0.53708506
158	0x3df4df64	0.11956671
159	0xbd5120d4	-0.051056698
160	0xbee92c9c	-0.45541847
161	0xbed6fc0c	-0.41989172
162	0xbd2a183d	-0.04152702
163	0x3f0eface	0.5585145
164	0x3df00bb9	0.11720986
165	0x3d769142	0.060197122
166	0x3e1e4ff3	0.15460186
167	0x3ec4e90c	0.3845905
168	0x3ea13768	0.31487584
169	0xbe95249c	-0.29129493
170	0x3eae2bc4	0.34017766
171	0x3e5f982a	0.2183539
172	0x3dd4962f	0.10380208
173	0xbd5976ff	-0.053092
174	0x3e95f1e9	0.29286125
175	0x3ef31e68	0.47484136
176	0x3d8fce08	0.07021719
177	0xbe7149e9	-0.2356335
178	0xbccb3c83	-0.024809128
179	0xbeb7890a	-0.3584674
180	0x3eb7f0e1	0.35925964
181	0xbe37595a	-0.17905179
182	0xbda0115e	-0.078158125
183	0xbe9d96ac	-0.30779016
184	0xbe19b130	-0.15008998
185	0xbe84a126	-0.25904197
186	0xbea8231f	-0.32839295
187	0xbd4da0fd	-0.05020236
188	0xbe2521f1	-0.16126229
189	0x3ebcfc6b	0.3691133
190	0xbe8f6224	-0.28004563
191	0xbe745d5e	-0.23863742
192	0xbd805ba0	-0.06267476
193	0xbd2699bb	-0.040673953
194	0x3e7d305a	0.24725476
195	0xbea9e105	-0.3317949
196	0xbe4e9be3	-0.20176654
197	0x3ddc9573	0.10770693
198	0xbce6f4a3	-0.028192824
199	0xbe90569d	-0.2819108
200	0x3e92f864	0.28705132
201	0x3eb6f5f8	0.35734534
202	0x3de85665	0.113446034
203	0x3d4fd323	0.050738465
204	0x3c29cf18	0.010364316
205	0x3d0a333d	0.03374027
206	0xbbd2f239	-0.0064375666
207	0x3e1f8c18	0.15580785
208	0xbdc6de96	-0.09710424
209	0xbe6c11f7	-0.23053728
210	0xbdfd8c4b	-0.123802744
211	0xbd079af1	-0.033106748
212	0x3e8314fe	0.25601953
213	0x3ea31798	0.31853938
214	0xbdc54a86	-0.09633355
215	0xbf1ad8ce	-0.6048707
216	0xbd7311e4	-0.059343234
217	0x3ee13ba0	0.43990803
218	0x3dd8f7fa	0.10594173
219	0x3e408a5d	0.18802781
220	0xbf071a26	-0.52774274
221	0xbd95df10	-0.073179364
222	0xbe4f0e78	-0.20220363
223	0x3d9c3169	0.07626612
224	0x3e54d100	0.20782852
225	0x3ec96a10	0.39338732
226	0x3e95300d	0.29138222
227	0x3ec273df	0.37979028
228	0x3f1af85d	0.6053522
229	0xbe8ad015	-0.2711188
230	0x3d7386fb	0.0594549
231	0xbedacdc6	-0.42735118
232	0xbee5cc28	-0.4488232
233	0x3f0cf4a3	0.55060786
234	0xbde3157a	-0.11088081
235	0xbcf33bb5	-0.029691556
236	0xbee54050	-0.4477563
237	0xbecd8a59	-0.40144613
238	0x3ef6b799	0.4818695
239	0x3d88f63c	0.066875905
240	0x3b1f3f8e	0.0024299356
241	0xbdb48dcb	-0.08816107
242	0xbe70460b	-0.2346422
243	0x3e9b8e56	0.3038203
244	0x3de4dd04	0.11174968
245	0x3efc69a9	0.49299362
246	0x3e028a3e	0.12748048
247	0xbeae3dcf	-0.3403153
248	0xbdf28ccb	-0.118432604
249	0x3e06d883	0.1316853

conv1.bias f4 [10]
0	0xbcc1a474	-0.023637988
1	0xbf3de5f3	-0.74179
2	0xbe9a8142	-0.3017674
3	0xbda215f6	-0.07914345
4	0xbd450faa	-0.04811064
5	0xbc115ff4	-0.008872975
6	0xbe343279	-0.17597379
7	0xbcb3e567	-0.021959973
8	0xbf1788c9	-0.5919309
9	0xbf172989	-0.5904775

conv2.weight f4 [20, 10, 5, 5]
0	0xbd70dabb	-0.058802348
1	0xbdbc8dd5	-0.0920674
2	0xbd9cda18	-0.076587856
3	0xbe27f762	-0.16402963
4	0x3ccf4448	0.025301114
5	0x3d083112	0.033249922
6	0x3e3cad8c	0.18425578
7	0x3e414b81	0.18876459
8	0x383660b5	4.3482247e-05
9	0xbde26b56	-0.11055629
10	0x3d3458be	0.044029944
11	0x3ba71e63	0.005100058
12	0x3e5eff22	0.21777013
13	0xbd7fc3dc	-0.062442645
14	0xbe2cb49e	-0.16865775
15	0xbc8cd494	-0.017191209
16	0xbcdc6e7a	-0.026908148
17	0x3df48414	0.119392544
18	0xbd877e67	-0.06615906
19	0xbdfb2ec8	-0.12264782
20	0xbde85537	-0.113443784
21	0x3d9eb4ec	0.07749352
22	0xbc114304	-0.008866075
23	0x3d780c15	0.060558397
24	0xbdc3168f	-0.09525787
25	0xbd78a4f9	-0.060704205
26	0xbc88596b	-0.0166442
27	0xbe2ddb9a	-0.16978303
28	0xbe1bb6d2	-0.15206459
29	0x3cb2c5de	0.021822866
30	0xbe00a1ba	-0.12561694
31	0xbd7939d1	-0.060846154
32	0xbe3b801f	-0.18310593
33	0xbdb6578c	-0.08903417
34	0xbcd081d8	-0.02545254
35	0xbe33c5f1	-0.17555977
36	0xbe2bc495	-0.16774209
37	0x3cad75de	0.021174368
38	0x3d9bbfcd	0.076049425
39	0x3e6b75b4	0.22994119
40	0xbe590a07	-0.21195231
41	0x3b1985f9	0.0023425801
42	0x3e3b402c	0.18286198
43	0x3e4c56e2	0.19955018
44	0x3cdc9d9b	0.02693062
45	0xbde27724	-0.110578805
46	0x3e89efb3	0.26940688
47	0x3e70549b	0.23469774
48	0x3da86e5d	0.08224175
49	0x3dde1171	0.108431704
50	0xbda0ac34	-0.07845345
51	0xbe23f703	-0.16012196
52	0x3d3a268d	0.04544692
53	0x3c44f12d	0.012020391
54	0x3e358fe5	0.17730673
55	0x3bdda1b2	0.0067636603
56	0xbda92543	-0.0825906
57	0xbd57dbc5	-0.052699823
58	0xbdd322cc	-0.10309371
59	0x3e61e9b3	0.22061805
60	0xbe3271c3	-0.17426209
61	0x3ad28327	0.0016060815
62	0xbd182bf5	-0.037151296
63	0x3d242608	0.040075332
64	0x3d535311	0.05159289
65	0xbdc3becc	-0.09557876
66	0xbcab596c	-0.020916663
67	0x3e20ea28	0.15714324
68	0x3e325e79	0.17418851
69	0xbdd4ad3f	-0.103846066
70	0xbce87c44	-0.028379567
71	0x3d935773	0.07194414
72	0x3e4104ff	0.18849562
73	0x3d2eb5a0	0.04265368
74	0xbdfd54a0	-0.123696566
75	0xbdbc30bb	-0.09188982
76	0xbd0d1d08	-0.034451514
77	0xbc5a50a4	-0.01332489
78	0xbd88af5c	-0.06674072
79	0xbec0f82f	-0.3768935
80	0x3d996245	0.074894466
81	0x3e42cbf7	0.19023119
82	0xbce3e62b	-0.027819714
83	0xbe0bf5d0	-0.13667989
84	0xbd5b92a5	-0.053606648
85	0x3e492d0c	0.1964609
86	0xbd33a8e7	-0.04386225
87	0xbe93b022	-0.28845316
88	0xbb45eae0	-0.003019981
89	0x3d462987	0.048379447
90	0xbccd1b63	-0.025037473
91	0xbe5e9db2	-0.21739843
92	0xbdb9de89	-0.09075648
93	0xbca1289e	-0.019672688
94	0xbe06455e	-0.13112399
95	0xbdd290cd	-0.10281525
96	0xbcdb1709	-0.026744382
97	0xbc04e2b4	-0.008110691
98	0x3de2738a	0.110571936
99	0xbe10f6a0	-0.1415658
100	0x3d08fa7b	0.033442
101	0x3d7a20a7	0.061066296
102	0x3da047dd	0.07826207
103	0xbe06d6f8	-0.13167942
104	0xbea6fbd8	-0.32614017
105	0x3e149534	0.14510041
106	0x3e22171f	0.15829132
107	0x3ca36f7c	0.01995062
108	0x3c5ccb35	0.013476183
109	0xbd67db4f	-0.056605633
110	0x3e6126cc	0.21987456
111	0x3dd42293	0.10358157
112	0xbdc32574	-0.09528628
113	0xbc0e4142	-0.008682551
114	0x3d48b40a	0.048999824
115	0xbdbd024f	-0.09228956
116	0x3adceb36	0.0016854766
117	0xbe754afc	-0.23954386
118	0xbe2439c4	-0.16037661
119	0x3afd8883	0.0019343052
120	0xbe58e054	-0.21179324
121	0xbe6c77f3	-0.23092632
122	0xbb498303	-0.0030748255
123	0x3d803697	0.06260412
124	0x3e4aad7d	0.19792743
125	0xbcbd769f	-0.023127852
126	0xbc4ae5c7	-0.012383885
127	0xbda043c2	-0.07825424
128	0xbdf355dc	-0.11881611
129	0xbe3de6a0	-0.18545008
130	0x3b560d46	0.003266172
131	0x3d256787	0.040381934
132	0xbdafa144	-0.08575681
133	0xbd9d1648	-0.076702654
134	0x3d775104	0.060379997
135	0xbd2ea3a1	-0.042636517
136	0x3df07d60	0.117426634
137	0x3e0665e9	0.13124813
138	0x3ccf8328	0.025331095
139	0x3dc42fc3	0.09579422
140	0xbd8dfc91	-0.06932939
141	0x3dad4241	0.084599026
142	0x3e63fbb8	0.22263992
143	0x3d8d0681	0.06886006
144	0x3c7b690d	0.01534487
145	0x3e03fada	0.12888661
146	0x3e5ead57	0.21745811
147	0x3d4c0560	0.049809813
148	0xbd66f9ba	-0.0563905
149	0xbd00e8c3	-0.03147198
150	0xbe0fdc79	-0.14048947
151	0x3dcbbaba	0.09947725
152	0x3e171f3c	0.14758009
153	0xbda9096c	-0.0825375
154	0xbe19a6c7	-0.15005027
155	0x3d159d9c	0.03652726
156	0x3de6f7cd	0.11277733
157	0x3db44da7	0.088038735
158	0xbd17da31	-0.037073318
159	0xbea04d8e	-0.3130917
160	0x3d6e38fc	0.058159813
161	0xbda332e0	-0.07968688
162	0xbd38ab03	-0.045084964
163	0xbde78ced	-0.11306176
164	0xbe9662a3	-0.2937213
165	0x3df24735	0.11829988
166	0x3de6e0c2	0.11273338
167	0x3e142385	0.14466675
168	0xbd3bf0d5	-0.045883972
169	0xbe8f17e0	-0.27947903
170	0x3e6f84e8	0.23390543
171	0x3dbb85f5	0.0915641
172	0x3e4b70e1	0.19867279
173	0x3e0a4956	0.13504538
174	0xbe0fdf7e	-0.14050099
175	0xbc91aa18	-0.017781302
176	0x3cca6f17	0.024711175
177	0xbced537a	-0.028970469
178	0xbc2d082f	-0.010561033
179	0xbdba7320	-0.091039896
180	0x3da00bad	0.07814727
181	0x3cded127	0.027199341
182	0xbda7f9bf	-0.08201932
183	0xbc964e78	-0.018347964
184	0xbda545b6	-0.08069937
185	0x3da01d98	0.078181446
186	0xbd573d4d	-0.052548695
187	0xbd0ba89f	-0.034096356
188	0xbd463eb5	-0.048399646
189	0x3cfa86c3	0.030581838
190	0x3d87b031	0.06625403
191	0x3d377e91	0.044798438
192	0x3da05c6b	0.07830127
193	0x3c942422	0.018083636
194	0x3df43964	0.11925009
195	0x3d266753	0.04062588
196	0x3c7f1b88	0.015570529
197	0x3da5a2f0	0.080877185
198	0x3de35c30	0.11101568
199	0x3da19710	0.07890141
200	0xbd986d5e	-0.07442735
201	0xbe0c472d	-0.13699026
202	0x3ce57d2a	0.028013784
203	0x3ae433be	0.001741044
204	0xbd32bdba	-0.04363797
205	0x3c811a80	0.015759706
206	0x3d03dbc2	0.032192
207	0x3cb8bc4c	0.022550724
208	0x3da6b316	0.08139627
209	0xbe146e66	-0.14495239
210	0x3cdc770b	0.026912233
211	0x3e136338	0.14393318
212	0x3e15ff52	0.14648178
213	0x3d02a51d	0.031895746
214	0xbde1b367	-0.110205464
215	0xbd403872	-0.04692883
216	0x3ba0559f	0.0048930193
217	0xbdaf7296	-0.085667774
218	0xbdaefd78	-0.08544439
219	0xbe44beb1	-0.19213368
220	0xbddb9204	-0.1072121
221	0x3cf19880	0.029491663
222	0xbd1c1b4f	-0.03811198
223	0xbdd6228d	-0.10455809
224	0xbdde1b27	-0.10845023
225	0xbe37b44a	-0.17939869
226	0xbe07fc22	-0.13279775
227	0xbc965096	-0.018348973
228	0xbd0b866d	-0.034063745
229	0xbde257c1	-0.11051894
230	0xbdf86e04	-0.12130359
231	0xbdc44378	-0.09583181
232	0x3df7edab	0.121058784
233	0xbdd0bcba	-0.10192247
234	0xbdff61c2	-0.12469818
235	0xbd9872e2	-0.07443787
236	0xbe1c3c21	-0.15257312
237	0x3e31b00f	0.17352317
238	0x3ca5bbd9	0.020231174
239	0xbdfac1f1	-0.12244023
240	0xbbdb1c51	-0.006686725
241	0x3bcf4bb3	0.0063261627
242	0x3e29ac25	0.16569574
243	0xbde0b491	-0.1097194
244	0xbca9f972	-0.020748828
245	0x3d1d4271	0.03839344
246	0xbd8a1b25	-0.06743459
247	0xbdd133dc	-0.102149695
248	0xbdd3bf95	-0.10339276
249	0xbde847ab	-0.113417946
250	0x3bd4efb4	0.0064983014
251	0x3d8b4cb4	0.06801739
252	0x3d7c09e5	0.061532874
253	0xbe362bb1	-0.17790104
254	0xbedc1e53	-0.42991886
255	0xbd99cf51	-0.075102456

conv2.bias f4 [20]
0	0x3d1a419c	0.037660226
1	0xbcfd3c4b	-0.030912539
2	0xbd5aafc9	-0.053390298
3	0xbe350fee	-0.17681858
4	0xbe945019	-0.2896736
5	0xbe92635a	-0.28591424
6	0x3e32ee08	0.17473614
7	0x3c81675a	0.015796352
8	0xbda7a303	-0.08185389
9	0xbe30dbf2	-0.17271402
10	0x3e50b0f3	0.20380001
11	0x3e11300f	0.14178489
12	0xbe27b9b4	-0.16379434
13	0x3ce51e20	0.027968466
14	0xbccd6328	-0.025071695
15	0xbe07bc6d	-0.13255472
16	0xbd66d76c	-0.056357786
17	0xbde1d561	-0.11027027
18	0xbe86be23	-0.26316938
19	0x3d22f947	0.03978851

fc1.weight f4 [50, 320]
0	0xbd27591d	-0.04085647
1	0xbdc0faaa	-0.094228104
2	0x3ae1dfbf	0.0017232819
3	0x3df47dc9	0.11938054
4	0xbdef9659	-0.116985984
5	0xbcf4d5c7	-0.029887093
6	0xbdc71f75	-0.09722797
7	0xbdd14d5f	-0.102198355
8	0xbe24de80	-0.16100502
9	0x3ca1c37a	0.01974653
10	0xbce308a1	-0.027714076
11	0x3d32b3b7	0.04362842
12	0xbce740c0	-0.028229117
13	0xbd44f9dc	-0.048089847
14	0x3d94d302	0.07266809
15	0x3e1df214	0.15424377
16	0x3d661177	0.056169
17	0xbc1f49df	-0.009722202
18	0xbe360fdd	-0.17779489
19	0x3e3e4a50	0.18583035
20	0x3e895cf2	0.26828724
21	0xbd7ced31	-0.06174964
22	0x3d8f6009	0.07000739
23	0xbcfc08b3	-0.030765867
24	0xbdd0c7ae	-0.10194336
25	0x3cfde1a9	0.030991392
26	0x3e037b77	0.12840067
27	0xbe285ff5	-0.16442855
28	0x3dbb74e6	0.09153156
29	0xbc2e5d57	-0.010642371
30	0xbe13fac8	-0.14451134
31	0xbe223618	-0.15840948
32	0xbda35ee8	-0.07977086
33	0x3dad5508	0.08463484
34	0x3c65edaa	0.014033714
35	0x3d83f1d9	0.06442613
36	0xbdddee6a	-0.108364895
37	0xbd83f1d1	-0.06442607
38	0xbddf4f40	-0.109037876
39	0x3e8e019c	0.27735603
40	0x3d7348da	0.05939565
41	0x3e1062e4	0.14100224
42	0xbe1903c7	-0.14942847
43	0xbc267562	-0.010159822
44	0xbb89a97b	-0.004201112
45	0x3de88c9f	0.11354946
46	0xbdc3eca9	-0.09566624
47	0xbe1a1ee2	-0.15050843
48	0x3dc37b47	0.09544998
49	0xbb211fc7	-0.002458559
50	0xbde3d128	-0.11123878
51	0x3d17d522	0.037068494
52	0x3cd83aea	0.02639528
53	0xbccd16ae	-0.025035229
54	0xbc851bb3	-0.01624856
55	0xbde2a069	-0.11065752
56	0x3ddefc59	0.10887975
57	0xbcb18f69	-0.021674829
58	0xbe2fc9f2	-0.1716688
59	0xbe4812f4	-0.1953848
60	0x3d72a5cc	0.059240147
61	0x3d914737	0.07093661
62	0x3bdff65f	0.0068347896
63	0xbcd68609	-0.02618696
64	0x3bab209d	0.0052223937
65	0x3af2be56	0.0018519859
66	0x3d5315a3	0.051534306
67	0x3d40d593	0.04707868
68	0xbd582c5e	-0.052776687
69	0x3d0473c5	0.03233697
70	0xbe0edbaa	-0.13950983
71	0xbe0a7e2d	-0.13524695
72	0xbe52ea46	-0.2059718
73	0xbe63b94b	-0.22238652
74	0x3cd3fd98	0.025877759
75	0x3d72e153	0.059296917
76	0x3e0d1ba4	0.13780075
77	0x3e00433a	0.12525645
78	0x3ce4dc70	0.027937144
79	0x3d0127a7	0.031531956
80	0xbab023b6	-0.0013438377
81	0xbdbeabbd	-0.093101
82	0xbca67244	-0.020318158
83	0x3d4e8736	0.050421916
84	0xbe4eae90	-0.20183778
85	0x3ac0656b	0.0014678662
86	0x3e3a2d0e	0.1818125
87	0x3e0cad80	0.1373806
88	0xbdb21bf4	-0.08696738
89	0xbdef92bb	-0.116979085
90	0xbe533188	-0.20624363
91	0xbd8edc62	-0.069756284
92	0xbd1914e0	-0.037373424
93	0x3d03bf02	0.03216458
94	0x3da6fde7	0.08153897
95	0x3da7ceaa	0.08193715
96	0x3d604985	0.054757614
97	0x3d8e928a	0.06961544
98	0xbd6467a6	-0.05576291
99	0xbdb3cef7	-0.0877971
100	0x3dbc1a37	0.091846876
101	0xbd91b348	-0.07114273
102	0x3b590c43	0.003311888
103	0x3d634a0c	0.05549054
104	0x3a8aaac5	0.0010579458
105	0xbc8b2966	-0.016987514
106	0xbd35fd41	-0.044430975
107	0x3dce7008	0.10079962
108	0xba4a66d5	-0.00077210116
109	0xbc767d4e	-0.015044523
110	0xbd2057da	-0.03914628
111	0xbddabd2c	-0.10680613
112	0xbcc4cfb7	-0.024024827
113	0xbe0ad2be	-0.13556954
114	0xbe07b7fc	-0.13253778
115	0xbd3f0bb0	-0.046642005
116	0x3d4ad42b	0.049518745
117	0xbe59c960	-0.21268225
118	0xbe4d999a	-0.20078126
119	0x3e132e72	0.14373186
120	0x3e11ca9d	0.14237447
121	0xbe28aff9	-0.16473378
122	0xbc9ae0b3	-0.018905973
123	0x3a2563b8	0.000630911
124	0x3c9eeb06	0.019399177
125	0x3b98e263	0.0046656593
126	0x3d1e404d	0.03863554
127	0x3dbb6379	0.09149832
128	0xbe1001db	-0.14063208
129	0xbb89703b	-0.004194287
130	0x3c97f51d	0.018549496
131	0x3da2d380	0.07950497
132	0xbdad2d80	-0.08455944
133	0x3ddf2d93	0.108973645
134	0x3e1aeba5	0.15128954
135	0xbd06ec4f	-0.032940205
136	0xbe07e9da	-0.13272801
137	0xbdd639fd	-0.10460279
138	0xbe14a0ec	-0.14514512
139	0xbde4dfd5	-0.11175505
140	0x3d9c2484	0.07624152
141	0x3d636627	0.055517342
142	0xba579d08	-0.00082249986
143	0x3b0b9337	0.0021297464
144	0xbe3c0842	-0.18362525
145	0x3beb539b	0.0071815974
146	0xbb8f2af2	-0.004369133
147	0x3d77394d	0.06035738
148	0xbe49caff	-0.19706343
149	0xbd1895aa	-0.037252106
150	0xbd75d700	-0.060019493
151	0xbcb56308	-0.022141948
152	0x3c2d0dd8	0.010562383
153	0xbd344ac0	-0.0440166
154	0xbdb268b0	-0.08711374
155	0x3e1bbb4b	0.15208165
156	0x3e3734b4	0.17891198
157	0x3d89fbac	0.06737456
158	0x3dc25899	0.09489555
159	0x3d08121e	0.033220403
160	0x3dd58951	0.10426582
161	0x3b8ee5c9	0.0043608886
162	0xbd6378db	-0.05553518
163	0x3d1f4973	0.038888406
164	0xbe302bdd	-0.17204233
165	0xbdb962b8	-0.09052032
166	0xbe199666	-0.14998779
167	0xbc324c86	-0.010882502
168	0xbd56fdda	-0.052488185
169	0xbd79a98d	-0.06095271
170	0xbdd537b5	-0.10411016
171	0x3c2b312b	0.010448734
172	0xbc235a7a	-0.009970302
173	0xbd86a2f8	-0.065740526
174	0x3cd29070	0.025703639
175	0x3e3d33d7	0.18476807
176	0x3d63ffb7	0.05566379
177	0xbd50ce48	-0.050977975
178	0x3aab30a5	0.0013060762
179	0xbd95f667	-0.07322388
180	0xbbc2fe09	-0.0059506935
181	0xbe2ac3a7	-0.16676198
182	0xbd59f225	-0.053209443
183	0xb9e72609	-0.00044088092
184	0xbd5e19bf	-0.054223772
185	0x3b98cb00	0.0046628714
186	0xbd57c85f	-0.052681323
187	0x3dbfdf19	0.093687244
188	0x3dcbb727	0.09947043
189	0x3c0b4998	0.008501433
190	0xbd18a721	-0.03726876
191	0xbd8554a4	-0.065102845
192	0xbe225710	-0.15853524
193	0x3d688991	0.05677182
194	0x3cf07244	0.029351361
195	0x3d2a8185	0.041627426
196	0xbe75a8b1	-0.23990132
197	0x39d2de47	0.0004021993
198	0xbdb67e8c	-0.08910856
199	0xbe129439	-0.14314355
200	0xbd0efd78	-0.034909695
201	0xbd819d07	-0.06328779
202	0xbd9e2991	-0.07722772
203	0x3d2c0027	0.041992333
204	0x3e527504	0.2055245
205	0xbd01726d	-0.031603266
206	0x3d620864	0.055183783
207	0x3d084ed1	0.03327829
208	0x3d010e5c	0.031507835
209	0xbd39b46e	-0.045338087
210	0xbddcc396	-0.107794926
211	0xbd045980	-0.032311916
212	0x3d5707de	0.052497737
213	0xbd130211	-0.035890643
214	0x3ca9fd3b	0.020750633
215	0x3d6e30b9	0.058151934
216	0x3d548585	0.051885147
217	0xbd125bb2	-0.03573198
218	0xbc02c14e	-0.007980658
219	0x3ddcb33d	0.107763745
220	0xbddd8acf	-0.10817491
221	0x3d9bd05c	0.07608101
222	0x3dbad5b5	0.09122793
223	0xbe13e03a	-0.14441004
224	0xbcdf214b	-0.027237555
225	0x3cc2fc6d	0.023802007
226	0xbd8ed187	-0.06973558
227	0x3b396ed6	0.0028294823
228	0xbcfedad3	-0.031110203
229	0x3e765af2	0.2405813
230	0x3d40bda3	0.04705585
231	0xbd1802ba	-0.037111975
232	0x3d870b0e	0.065939054
233	0x3e1966f1	0.14980675
234	0x3b8a1631	0.004214071
235	0xbe2405f0	-0.1601789
236	0x3db51daf	0.08843552
237	0xbbdcf093	-0.006742546
238	0x3d20b92a	0.039239086
239	0xbe2cec08	-0.16886914
240	0x3d025525	0.03181948
241	0xbd13a8d3	-0.036049675
242	0xbd625400	-0.05525589
243	0xbdb84404	-0.08997348
244	0xbc4719f7	-0.012152187
245	0xbd4987da	-0.049201824
246	0xbd575477	-0.052570786
247	0x3d6eeeaf	0.058333095
248	0x3c93159f	0.017954646
249	0xbdac7916	-0.08421533
250	0xbcb05479	-0.021524655
251	0xbd46801d	-0.048462022
252	0x3e67bd60	0.22630835
253	0x3d9e81b9	0.077395864
254	0xbd160dfb	-0.036634427
255	0xbe537804	-0.20651251

fc1.bias f4 [50]
0	0xbd36412c	-0.044495746
1	0x3cab85ed	0.020937884
2	0xbc87ca6e	-0.016576018
3	0x3c51814e	0.012787176
4	0x3e30d5fc	0.17269129
5	0x3e879848	0.2648337
6	0x3ede4768	0.43413854
7	0x3ea8acab	0.32944235
8	0xbd15e309	-0.03659347
9	0x3f0892dc	0.5334909
10	0x3e0ff6bd	0.14058967
11	0xbe0ae041	-0.13562109
12	0x3e1a8156	0.150884
13	0x3e853f99	0.26025084
14	0x3e3e1505	0.18562706
15	0x3e8c4129	0.27393463
16	0x3dbe4402	0.09290315
17	0x3e220dc7	0.15825568
18	0x3eac3d14	0.3364035
19	0x3e0176d3	0.12642984
20	0x3d183b46	0.037165903
21	0xbcf647be	-0.030063506
22	0x3dfc211c	0.123110026
23	0xbc60727d	-0.013699171
24	0x3d3460cf	0.044037636
25	0x3d99a150	0.07501471
26	0x3e0a807f	0.1352558
27	0x3ee8ae60	0.45445538
28	0xbdd5a43d	-0.104317166
29	0x3e699198	0.22809446
30	0x3d9cf737	0.0766434
31	0x3ed07581	0.40714648
32	0x3e8993b8	0.26870513
33	0x3e36ebd5	0.178634
34	0x3e0620a8	0.13098395
35	0x3e3416ee	0.17586872
36	0x3e15159f	0.14559029
37	0xbd2bb3f8	-0.04191968
38	0xbd84bf28	-0.06481773
39	0x3e00ae29	0.12566437
40	0x3ea84536	0.32865304
41	0xba20d397	-0.0006135045
42	0x3e1defa5	0.15423448
43	0x3eac6e9c	0.33678138
44	0x3ea00994	0.31257308
45	0x3d92669b	0.07148477
46	0x3e753ea4	0.23949677
47	0x3df06253	0.11737504
48	0xbd512d5c	-0.05106865
49	0x3ba6a458	0.0050855093

fc2.weight f4 [10, 50]
0	0xbe90b93b	-0.2826632
1	0x3e87fc58	0.2655971
2	0xbe8b6f9c	-0.2723359
3	0xbe911e8d	-0.2834362
4	0xbe92d95f	-0.28681466
5	0xbe30af64	-0.17254406
6	0xbbfc4b3d	-0.007699399
7	0xbe1511f8	-0.14557636
8	0xbee68fbd	-0.4503154
9	0xbebea1f3	-0.37232932
10	0x3ea8c0f3	0.3295971
11	0xbe5a7d49	-0.21336855
12	0x3ea402d2	0.32033402
13	0xbec31611	-0.38102773
14	0xbebcbf19	-0.36864546
15	0xbedb58c5	-0.42841163
16	0x3e8e8c51	0.27841428
17	0x3ed0fd2a	0.4081815
18	0xbe052473	-0.13002186
19	0xbe9b6b65	-0.30355373
20	0xbd81c783	-0.06336882
21	0x3e84c1e4	0.25929177
22	0xbeb3fb12	-0.3515249
23	0x3ea1f31f	0.316308
24	0x3e71afc9	0.23602213
25	0xbe539e03	-0.20665745
26	0x3e9ee0a9	0.31030777
27	0x3ecd1028	0.4005139
28	0x3c85a8e9	0.016315894
29	0x3ecdd667	0.40202639
30	0xbda27bd0	-0.079337716
31	0xbe9456ac	-0.28972375
32	0xbee2ce59	-0.44298056
33	0x3e934df8	0.28770423
34	0x3edaa141	0.42701152
35	0xbd0a5799	-0.033774946
36	0x3de960fc	0.113954514
37	0xbe54c00e	-0.20776388
38	0xbe94b887	-0.29047033
39	0xbe6f4e2b	-0.23369662
40	0xbe471f16	-0.19445452
41	0x3dcaa857	0.098953895
42	0x3ecfbca3	0.40573606
43	0x3eb2e727	0.3494198
44	0xbecad53d	-0.39615813
45	0xbec4a1dc	-0.3840474
46	0xbe3f4103	-0.18677144
47	0xbe70d483	-0.23518567
48	0xbea0e0ba	-0.31421453
49	0xbd2eaaf2	-0.042643495
50	0xbebbefd8	-0.36706424
51	0xbeeaa3b0	-0.4582801
52	0x3dba87e8	0.09107953
53	0xbe69fe09	-0.22850813
54	0x3e5d66bf	0.21621226
55	0x3ef174d7	0.47159454
56	0x3ed50eda	0.41612893
57	0x3ec00e2f	0.3751082
58	0xbe7d7c54	-0.24754459
59	0x3ed2a376	0.41140336
60	0xbe6caa22	-0.23111776
61	0xbf05f7ee	-0.52331436
62	0xbea0f372	-0.31435734
63	0x3eaefd71	0.34177735
64	0x3eb198cd	0.3468689
65	0x3ed76bb5	0.4207436
66	0xbed24da4	-0.4107486
67	0xbee753f6	-0.45181245
68	0x3eae4fa8	0.34045148
69	0x3d9fef41	0.07809306
70	0xbe5c673a	-0.21523753
71	0xbea47db6	-0.3212716
72	0xbea32da6	-0.31870764
73	0xbed9e718	-0.42559123
74	0xbed71020	-0.4200449
75	0xbe5fb094	-0.21844703
76	0xbeed4c62	-0.46347338
77	0x3ee57bcb	0.4482101
78	0xbbebb030	-0.007192634
79	0xbe7a819c	-0.24463505
80	0xbeb006e7	-0.34380266
81	0x3eafebae	0.34359497
82	0x3ecf4a45	0.4048635
83	0xbef96745	-0.487116
84	0x3bee9ee5	0.0072821253
85	0xbe7d914e	-0.2476246
86	0xbeb79b77	-0.35860798
87	0xbe59e36b	-0.2127816
88	0xbeeb4a2f	-0.45955035
89	0x3d1a0f56	0.03761228
90	0x3ed1e8f0	0.4099803
91	0x3cd32421	0.025774064
92	0xbedd86e9	-0.4326699
93	0x3e44fbbf	0.19236659
94	0x3ec9de4a	0.39427406
95	0xbebf929b	-0.3741654
96	0x3e6191a5	0.22028215
97	0xbe0e65df	-0.13906048
98	0xbe822441	-0.25418285
99	0xbe908b26	-0.28231162
100	0xbe9601a5	-0.2929813
101	0x3e6716f0	0.22567344
102	0x3ea9fc31	0.3320022
103	0x3dfae4d5	0.122506775
104	0x3e9f01cf	0.31056067
105	0xbe787647	-0.24263869
106	0x3e600c10	0.21879601
107	0xbe43f572	-0.19136599
108	0xbd198dd8	-0.03748879
109	0xbe9a5e40	-0.30150032
110	0x3e73f149	0.23822512
111	0xbe9e2b74	-0.30892527
112	0x3e5dc159	0.21655788
113	0xbe1a0450	-0.15040708
114	0x3ebe10c4	0.37122166
115	0x3e3e902f	0.18609689
116	0xbdc8c67d	-0.09803484
117	0xbeb3b5b3	-0.35099563
118	0xbd0da60e	-0.03458219
119	0xbea37734	-0.31926882
120	0x3e5a7260	0.21332693
121	0x3eb3f0bf	0.35144612
122	0xbdf5d7f4	-0.120040804
123	0x3e6c84c1	0.23097517
124	0xbe93d8d8	-0.28876376
125	0x3e7a5dff	0.24449919
126	0xbeae1170	-0.3399768
127	0xbd98006a	-0.07421954
128	0x3edec709	0.43511227
129	0xbd21f217	-0.039537515
130	0x3daafe95	0.08349339
131	0xbe44bf96	-0.19213709
132	0xbee98eda	-0.456168
133	0x3cea4290	0.028596193
134	0x3ed7b22e	0.42128128
135	0x3e182465	0.14857633
136	0xbdf3923e	-0.11893128
137	0x3be19aac	0.0068848934
138	0xbe26eb44	-0.16300684
139	0x3ece0cac	0.40244043
140	0x3e80a49a	0.2512558
141	0x3e993989	0.29926708
142	0x3dea4f57	0.11440914
143	0xbe9fa63e	-0.3118152
144	0x3eb4c9d6	0.3531024
145	0xbdf1de96	-0.11810033
146	0x3eb2be8c	0.34911
147	0xbe3ee74e	-0.18642923
148	0x3e9212f0	0.28530073
149	0xbd9d75ee	-0.07688509
150	0x3e94e893	0.2908369
151	0x3e782430	0.24232554
152	0x3ea3b938	0.31977248
153	0xbb88a1a2	-0.0041696588
154	0x3e9a5247	0.30140898
155	0x3ec17191	0.37781957
156	0xbeace155	-0.33765665
157	0xbe274a79	-0.16337003
158	0x3ec2d905	0.38056198
159	0xbe9f816c	-0.3115343
160	0xbeb4b9fb	-0.35298142
161	0x3e9bea19	0.3045204
162	0xbe95f4d7	-0.2928836
163	0x3ea79bea	0.3273614
164	0x3ea54ea5	0.32286564
165	0xbe53106e	-0.20611736
166	0xbe9d6ffe	-0.30749506
167	0xbe0751b5	-0.13214763
168	0xbebc3fca	-0.36767417
169	0x3eb63a8a	0.35591537
170	0xbe519564	-0.20467144
171	0x3d978bd3	0.07399716
172	0xbc5371a5	-0.012905513
173	0x3e82de32	0.25560147
174	0x3e7fe664	0.24990231
175	0x3e9a3998	0.30122066
176	0xbc2e8584	-0.01065195
177	0xbec34000	-0.38134766
178	0xbe37f299	-0.17963637
179	0xbe1bf736	-0.15231022
180	0x3e13272e	0.14370415
181	0xbe901e12	-0.28147942
182	0xbe4ba8a1	-0.19888546
183	0xbde2f874	-0.11082545
184	0xbdb953cd	-0.09049187
185	0xbe0c2188	-0.13684666
186	0xbe9c99dd	-0.30586138
187	0x3ed59123	0.41712293
188	0xbd8fbc5a	-0.07018347
189	0x3eb8e7c8	0.36114335
190	0xbea9f1e2	-0.33192354
191	0x3eb66369	0.3562272
192	0xbe13244b	-0.14369313
193	0xbebd509c	-0.36975563
194	0xbe7acefd	-0.24493022
195	0x3dacd827	0.08439665
196	0x3d6a05b6	0.057134353
197	0xbdc29afd	-0.09502218
198	0x3eb7ca2f	0.3589644
199	0xbdbb0759	-0.09132261
200	0x3e76e58f	0.24111007
201	0x3de0ff38	0.10986179
202	0xbe7793be	-0.24177453
203	0x3eb1a207	0.3469393
204	0xbec1227c	-0.37721622
205	0xbe05d316	-0.13068804
206	0x3ec82e86	0.39097995
207	0xbe4cd365	-0.20002516
208	0x3eb5221c	0.35377586
209	0x3ed260c6	0.41089457
210	0x3e24047d	0.16017337
211	0xbc41dce0	-0.011832446
212	0x3eae9a9e	0.3410234
213	0xbd133808	-0.035942107
214	0xbe8c08c0	-0.27350426
215	0x3ebcc777	0.3687093
216	0xbe85a186	-0.26099795
217	0xbe133749	-0.14376558
218	0x3e9bef3d	0.30455962
219	0xbe58f641	-0.21187688
220	0x3e2fb43b	0.17158596
221	0xbec9cea3	-0.39415464
222	0x3ec9b92b	0.39399084
223	0xbeddd0da	-0.43323404
224	0xbef0b48d	-0.4701275
225	0x3e83219e	0.25611585
226	0xbe81ac97	-0.25326988
227	0xbe07e13c	-0.13269514
228	0x3e357291	0.17719485
229	0xbe80724a	-0.25087196
230	0xbe3ec498	-0.18629682
231	0x3eacbc1f	0.33737275
232	0x3e08ceda	0.13360158
233	0xbef3c49c	-0.4761094
234	0x3da0115e	0.078158125
235	0x3ee0d5b1	0.43913034
236	0x3f0161e7	0.5054001
237	0x3d3fe9ca	0.046853818
238	0x3d7e0094	0.06201227
239	0xbeba1121	-0.36341193
240	0xbdaba0b6	-0.083802626
241	0xbe68619a	-0.22693482
242	0xbe552fd6	-0.20819029
243	0xbdc77125	-0.097383775
244	0x3c83f8d2	0.016109858
245	0x3ebe1602	0.37126166
246	0xbe686314	-0.22694045
247	0x3edbf7d0	0.42962503
248	0x3e8879ab	0.26655325
249	0x3eb095cf	0.34489295
250	0x3e9aa02f	0.30200335
251	0xbea2c473	-0.31790504
252	0xbe2ab87b	-0.16671936
253	0x3ea3943f	0.3194904
254	0xbe77d2ff	-0.24201582
255	0x3ec4206e	0.38305992

fc2.bias f4 [10]
0	0x3f07dc03	0.53070086
1	0x3f815928	1.0105333
2	0xbdb01087	-0.08596902
3	0xbec8ef69	-0.39245155
4	0xbe09a9ce	-0.13443682
5	0xbe42f642	-0.19039252
6	0xbec66f7c	-0.3875693
7	0xbea719e8	-0.32636952
8	0xbcf72d43	-0.03017295
9	0xbd60175a	-0.05470977
