models/mnist_lenet.pt (torch_old, 179343 bytes, 10 tensors)

C1.weight f4 [6, 1, 5, 5]
000000 3d 33 6f 3d 49 1c b8 bd 77 f0 aa bd 0f 08 a1 bd
       0.058398474 -0.0898977 -0.08346646 -0.07862865
000010 f2 4b 83 3e c9 c2 68 be 1e db 46 bd 76 5b 95 be
       0.2564388 -0.22730555 -0.04854881 -0.29171342
000020 6e 61 37 bd f7 ca 52 3d d8 f9 47 be f6 dd 17 be
       -0.04477065 0.051463094 -0.19528902 -0.14830765
000030 77 09 2c be 0a 38 3f 3e 68 8b 84 3e d5 91 69 be
       -0.16800486 0.18673721 0.2588761 -0.22809537
000040 c1 be da bd 22 c6 aa bd 84 42 34 3e 19 45 81 3e
       -0.10680915 -0.08338572 0.17603499 0.2524803
000050 2a d9 3d be 42 61 a5 3d bf 68 7e 3e f2 32 c6 3d
       -0.18539873 0.08075191 0.24844645 0.09677686
000060 8f 11 d1 3e e3 27 63 be 0e 20 ed bd 11 23 cb be
       0.4083371 -0.22183184 -0.115783796 -0.3967519
000070 db a1 99 be 14 6d b6 be eb 59 3a 3b 33 e0 88 bd
       -0.30006298 -0.35630095 0.0028434943 -0.066833876
000080 22 44 17 be 0f 58 6d 3e 17 0c a1 bc 36 de 3e bd
       -0.14772084 0.23178123 -0.019659085 -0.046598636
000090 db fc 41 3e d8 ec de 3e 1f d5 96 3e 6d 75 9d 3e
       0.18944113 0.43540072 0.29459473 0.3075365
0000a0 53 9f 16 3e a1 95 bf 3e 3d dc 26 3f 10 4d 27 3f
       0.14709215 0.37418845 0.65179807 0.65351963
0000b0 b6 88 f3 3e 3e ef 0a 3b fb ff 12 3d 63 da 83 3e
       0.4756524 0.0021199728 0.035888653 0.25752553
0000c0 91 72 b2 3e 2b a3 57 3e fe ba 07 3e 71 61 01 bd
       0.34853032 0.21058337 0.13254926 -0.031587068
0000d0 56 33 13 3e f1 fa b5 bd 8a 53 04 3c ef 35 db bd
       0.14375052 -0.08885754 0.008076558 -0.107036464
0000e0 a9 d0 09 be 82 d3 ea 3d 40 61 38 3d f0 fb 47 3e
       -0.13458504 0.11466123 0.04501462 0.195297
0000f0 0d 45 8a bd f8 95 c6 bd d5 c2 5e be 65 2b 67 3c
       -0.06751452 -0.09696573 -0.2175401 0.014109467
000100 2b 26 a1 3e 46 80 99 be 57 8a ac bd a9 db 69 bd
       0.31474432 -0.29980677 -0.08424824 -0.05709425
000110 92 0f a2 3e 41 78 47 3e 0a 51 21 be 3d 38 bb bd
       0.31652504 0.19479467 -0.1575357 -0.09141586
000120 16 5e f4 3d 37 04 84 3d 31 44 80 3e 84 36 1a bd
       0.11932008 0.064461164 0.25052026 -0.037649646
000130 e2 7f 34 3e 7b 7c 91 3e ba 73 c8 3d a8 64 44 be
       0.17626908 0.28415284 0.09787698 -0.19179022
000140 6c 54 00 be 74 df 67 3d 42 b8 00 3e d9 bc 2f be
       -0.12532204 0.056609586 0.12570289 -0.17161883
000150 dc 64 bc bd 45 5f 37 3e 28 48 8f 3e ac ed 6b 3e
       -0.09198925 0.17907436 0.27984738 0.23039883
000160 8f 37 10 3e 2d 10 67 be b9 eb 37 3e 1c c0 90 3d
       0.14083694 -0.22564764 0.17961015 0.07067892
000170 7e a4 8e bb f4 77 f5 3d d6 f1 06 3e 28 00 58 be
       -0.004353105 0.1198577 0.1317819 -0.2109381
000180 20 f4 5e 3d 1d 84 25 be 93 be 6b be 1e df 03 bb
       0.054432034 -0.16163678 -0.23021917 -0.0020122002
000190 6d 3d 12 be e2 fb 54 be cd be 22 3e ee bd e6 bd
       -0.14281245 -0.2079921 0.15893097 -0.11266695
0001a0 63 12 38 3d 80 4b 2d 3e 11 22 6f bd 75 3c 81 3e
       0.04493941 0.16923332 -0.058382098 0.25241438
0001b0 be a0 7c 3e 63 0b 94 3e 1c aa ff 3d 7e 98 28 3e
       0.24670693 0.28914937 0.12483618 0.16464421
0001c0 f9 d8 ed 3d bf 7e 52 bd 97 54 84 3e 9d 49 d8 3d
       0.1161365 -0.051390406 0.25845787 0.105609156
0001d0 bd fe 82 be e9 35 44 be 80 89 7a be d1 78 e4 3d
       -0.25584975 -0.1916119 -0.24466515 0.111558564
0001e0 3e ec 98 be 81 66 c6 3c ad 56 fa bd d3 29 99 be
       -0.29867738 0.0242188 -0.12223563 -0.29914722
0001f0 8f d1 26 be 55 93 ea be c5 c6 95 be fa 3c 79 bd
       -0.16290878 -0.4581553 -0.29253212 -0.060849167
000200 69 15 80 3e 36 b5 63 be 6b 11 71 be 03 db 0f 3f
       0.25016335 -0.22237095 -0.235418 0.5619356
000210 ec 71 99 3f 05 7b 9e 3f 90 9e 1b 3f d0 57 0b 3e
       1.1987891 1.2381293 0.6078882 0.13607717
000220 82 26 79 3f 34 f6 c8 3f 61 46 a3 3f 34 be 11 3f
       0.97324383 1.5700135 1.2755853 0.5693085
000230 82 45 46 be 4b 8c 0f 3f 84 be 89 3f cf 25 5a 3f
       -0.19362453 0.56073445 1.0761266 0.8521394
000240 3e 9b 91 3e 69 43 b1 be 93 20 d1 be e7 27 89 bd
       0.28438753 -0.34621742 -0.40845165 -0.06697064
000250 87 ec af bd f2 8f ff be
       -0.08590036 -0.4991451

C1.bias f4 [6]
000000 bc 38 29 3e 73 40 be 3d aa a8 2e 3c 97 2e 35 3e
       0.16525549 0.092896365 0.01066033 0.17693554
000010 47 0d a8 b9 aa c9 25 3c
       -0.0003205335 0.010118881

C3.weight f4 [16, 6, 5, 5]
000000 11 80 eb 3b ae 05 84 3d 9d da c6 bd 31 80 3e bc
       0.0071868976 0.06446396 -0.09709666 -0.011627243
000010 72 5a 2a 3d b3 e8 8b 3d 3f 94 7c bc d0 70 bb bb
       0.04159016 0.06831493 -0.015416204 -0.0057202354
000020 61 34 1c bd 51 22 95 bd 98 e8 85 3c 20 ce 83 3c
       -0.03813589 -0.07281936 0.01634626 0.016089499
000030 62 67 03 bd 18 1c e0 bd c3 b9 e3 bd 97 25 d8 3c
       -0.032081015 -0.109428585 -0.111194156 0.026385112
000040 cf ad fd bd 82 8c 18 be 05 0f 9c bd 30 fe dc bd
       -0.12386667 -0.1489735 -0.07620052 -0.1079067
000050 02 eb 17 be d9 2d 46 3b 50 cf c4 3c 5d e9 10 bc
       -0.14835742 0.003023973 0.024024636 -0.008844701
000060 d7 5e f1 bd 78 e6 0e 3c dd 5b 98 3d c6 81 44 bd
       -0.117856674 0.00872194 0.074393965 -0.047975324
000070 86 fa 8b bd 48 4f c8 3d 9a 39 23 3d df f6 d2 3d
       -0.06834893 0.09780747 0.039849855 0.10300993
000080 67 39 72 3c 2e e0 21 be 46 81 bb bd 4c cd a7 bc
       0.014784194 -0.15808174 -0.09155516 -0.020483635
000090 ca 31 d1 3d af 9e 18 bd cf 71 42 bd a3 61 5c bd
       0.10214575 -0.037260707 -0.047471818 -0.05380405
0000a0 26 b1 51 bd 7d 06 ba 3c 52 53 a9 bc fc 5f 9d bc
       -0.051194333 0.022708172 -0.020669613 -0.019210808
0000b0 98 33 6a bd ce ec 85 be 6d 42 8c be 50 3f 2c be
       -0.05717811 -0.2615723 -0.2739443 -0.16821027
0000c0 94 42 5c bd 5a 50 2f bc 90 f9 80 3d 84 48 c5 3d
       -0.05377443 -0.01070031 0.062976 0.09632972
0000d0 b3 72 cc bc bf 3b 81 bd 03 12 83 3d bf e1 21 bc
       -0.024957037 -0.06310224 0.0639992 -0.009880482
0000e0 d0 2e da 3b a4 ba b1 bd dc c4 26 bc db c8 6b 3d
       0.0066584125 -0.08678177 -0.010178771 0.057564598
0000f0 63 f2 86 3d f3 21 24 bb 9a 2b 73 3c 5d 08 04 3c
       0.065892 -0.002504465 0.014841938 0.008058635
000100 51 f2 ab bd 5a fb 99 bd 98 c2 39 bd 96 40 9c bd
       -0.083958276 -0.07518645 -0.045351595 -0.07629506
000110 b5 22 5a 3d 53 c4 84 bd b1 21 66 bd de 22 29 3d
       0.053255755 -0.064827584 -0.056184474 0.041293018
000120 75 4e a2 3d 91 d1 52 3c f4 07 2a bd e6 89 ed bd
       0.07925121 0.012867347 -0.04151149 -0.11598568
000130 49 ee 1f 3d 00 45 cf 3c 59 78 8e bd f4 89 9f bb
       0.039045606 0.025301456 -0.06956548 -0.00486874
000140 10 a6 a8 bd 31 2e 09 3d 06 05 89 3d f7 53 ff bd
       -0.08234799 0.033491317 0.06690411 -0.12467187
000150 04 b1 6e bc 3a e1 b9 bd 38 15 ba 3b b0 92 3b 3d
       -0.014568571 -0.09076162 0.005678799 0.04579419
000160 25 14 06 3c df a0 9d bd 1e ab ac bd b0 bd b6 3d
       0.008183514 -0.07696699 -0.084310755 0.08922899
000170 58 2e 4a 3d 78 94 a1 bd 44 8a cd bd 99 d9 96 bd
       0.049360603 -0.07889646 -0.10036138 -0.07365722
000180 44 2d 01 3d 76 25 1e 3d ef 78 9e 3c cc 9f 35 3d
       0.03153731 0.038609944 0.019344775 0.044341847
000190 07 34 da 3c 48 b4 41 bc ca b9 27 3d 6d 21 30 bc
       0.026636137 -0.011822768 0.040948667 -0.010750157
0001a0 25 41 2d 3d 29 3e 59 bd 14 71 d7 3c 55 8b 6f bb
       0.042298455 -0.053037796 0.026299037 -0.0036551554
0001b0 07 68 1e 3d f0 e5 05 3d ac 33 86 bd e6 d9 7b bd
       0.038673427 0.03268999 -0.065528244 -0.0614871
0001c0 ed 10 4b 3d e9 1a 2e 3d 03 df fb 3d 16 08 26 3d
       0.04957669 0.042506132 0.122983955 0.040535055
0001d0 74 58 8a 3d c7 05 09 3e d0 e8 c4 3d 43 ff b5 3d
       0.06755152 0.1338111 0.09614718 0.08886578
0001e0 34 76 10 3e 40 3c 15 3e 73 a3 9b 3d 06 8d cf bb
       0.14107591 0.14573765 0.07599535 -0.00633395
0001f0 b6 c9 76 3d bf 5b 80 3c cb a5 8b 3e 80 31 42 3d
       0.06025096 0.015668748 0.27274927 0.047410488
000200 ce 21 53 be 38 32 53 bd ab ad 88 bd 63 b5 d4 3e
       -0.20618364 -0.051561564 -0.066737495 0.41544637
000210 cc f2 8c 3d 2d b4 84 be a7 20 38 be 70 db 5e 3c
       0.06882247 -0.25918713 -0.17981206 0.013602123
000220 a5 2e d7 3e f8 21 09 3e af f1 be bd 6e 33 0b bd
       0.42027774 0.13391864 -0.09323441 -0.033984594
000230 f0 81 a3 3d 5b 90 8a 3e 29 54 06 3e 17 72 6c 3d
       0.07983768 0.2706326 0.13118042 0.057725992
000240 7a 51 e5 bd 5c 2f 09 bf 6d 61 81 be 16 f6 06 be
       -0.11197181 -0.5358789 -0.25269642 -0.13179812
000250 7e 66 6b bd 20 00 81 bd 5d 34 20 3d 87 f2 b0 bd
       -0.05747079 -0.06298852 0.039112438 -0.086400084
000260 e1 60 57 3d b3 dd c4 bd 29 84 ba bd 36 18 5a bd
       0.052582625 -0.09612598 -0.09107239 -0.053245746
000270 df 68 c3 38 98 7b 2d bd 8d 61 0e 3d eb de da 3d
       9.317858e-05 -0.042354196 0.034761 0.106870495
000280 de fa 03 3d 59 98 14 3d a9 49 b1 3d 34 e8 f5 3d
       0.032221667 0.036278103 0.08656628 0.1200718
000290 16 5f 10 bd fa c6 ee bc 2e ed e3 3d 7f da 35 bd
       -0.03524693 -0.029147614 0.11129223 -0.044397827
0002a0 b0 14 8c 3d 39 2c 95 bd dd 16 47 3d 51 76 9f bd
       0.06839883 -0.072838254 0.04860579 -0.07786239
0002b0 7f af c4 3c 7e d5 8f bc 80 74 2b 3d 74 0a 90 bc
       0.024009464 -0.017557856 0.04185915 -0.01758311
0002c0 e4 0f d9 bc f4 7d cd 3d 99 ca 02 3d 73 39 c9 3c
       -0.026496835 0.10033789 0.031931493 0.024563527
0002d0 a4 9e 0c be 4d 70 56 be 68 28 71 be b5 e5 1f be
       -0.13732392 -0.20941277 -0.2355057 -0.1561497
0002e0 41 b1 fe bc 2c 04 25 bd cb 54 2d bd bc a9 3b bc
       -0.03109038 -0.04028718 -0.042317193 -0.011454042
0002f0 a7 1b 01 3e 99 e6 3d 3d 2d e2 9a 3c b9 06 9b 3c
       0.12608205 0.046362493 0.018906677 0.018924104
000300 b4 b1 c3 3d c3 ca f8 3d 71 2f 8e bd 85 89 cb bc
       0.095553786 0.12148049 -0.069426425 -0.024845848
000310 31 25 02 bd 30 39 e1 bd 51 d2 e1 bd 23 70 92 bd
       -0.03177375 -0.10997236 -0.11026443 -0.07150295
000320 a0 40 5b 3b d9 b3 a6 3d c6 a5 99 3d ca 7c 3d bd
       0.0033455268 0.08139772 0.07502322 -0.046261586
000330 d4 5c 91 bd 6d 14 a1 bd 7f 8d 5f bd 1a 1b a6 bd
       -0.07097784 -0.07865224 -0.0545783 -0.08110638
000340 8f d0 f7 3c df 2f 55 3c c4 43 5b 3d d9 bb e8 3c
       0.030250816 0.013011902 0.053531423 0.028409885
000350 42 5a 57 bd cc f4 bd 3d fc c4 d9 3c 4f c3 79 3d
       -0.05257631 0.09275207 0.026583187 0.060977276
000360 55 7d d4 3c c9 b0 ea bb 85 52 96 3d 9b c1 bd bb
       0.02593867 -0.0071621877 0.07339958 -0.005790902
000370 86 22 3f bd d4 8f 86 bd c9 fe bd bd 55 55 0b 3d
       -0.046663783 -0.06570402 -0.09277112 0.034016926
000380 d2 f9 c2 3d 43 d1 93 bd 62 ae 01 bd db 82 8b bd
       0.09520306 -0.07217648 -0.031660445 -0.06812068
000390 53 33 ba 3b 74 51 60 3d fb 70 2e bd 88 c7 7b bc
       0.005682388 0.05476518 -0.042588215 -0.015367396
0003a0 ef 8a 82 bd 08 a0 b6 bd 53 42 a9 bd dd 5a 5b 3d
       -0.06374156 -0.08917242 -0.082646035 0.05355345
0003b0 5a 8e d1 bd d4 a7 37 bd a3 6f 1d 3d 05 17 4c 3d
       -0.102322295 -0.044837788 0.038436543 0.04982664
0003c0 36 01 83 3d 76 a1 00 bd e7 38 ca bc ef cf ae 3c
       0.06396715 -0.03140398 -0.024685336 0.021339385
0003d0 52 9d 19 bc 88 4b 00 bd 07 4c 98 bd bb e3 c6 3d
       -0.009375887 -0.031322032 -0.07436376 0.09711405
0003e0 22 45 7d 3b 27 06 8c 3d ce 80 33 bd a1 8f 92 3d
       0.0038645943 0.06837111 -0.04382401 0.07156301
0003f0 d4 53 cb 3d 11 0d 16 3d 4d 4b a1 bc 1b de da 3c
       0.09928098 0.036633555 -0.019689227 0.026717236

C3.bias f4 [16]
000000 f5 4f b9 bd 57 6a 2a bc ef f1 ce 3d f1 67 6c bd
       -0.09048454 -0.01040133 0.10104739 -0.057716314
000010 c3 9a d3 bc 32 b7 b6 3b 0e 8c d4 3d 36 e5 61 3e
       -0.025830632 0.005576038 0.10378276 0.22060093
000020 4e c1 62 3d f3 75 fe 3d e7 ad f7 3c a6 58 48 3e
       0.05536013 0.12424841 0.03023429 0.19565067
000030 4c c1 34 3e 71 35 f9 bd 36 d6 0d bb 7b 7d b5 3d
       0.17651862 -0.12168396 -0.0021642572 0.08861824

F5.weight f4 [120, 256]
000000 80 84 12 bc 20 65 99 bd 2a c4 69 bc 5e 72 73 3a
       -0.008942723 -0.07489991 -0.014267961 0.00092867564
000010 13 a6 ee bd 61 1b c7 bc 15 59 9a bd 4e 3a ae 3c
       -0.1165277 -0.024305047 -0.07536522 0.021268036
000020 5a a3 50 3d eb 07 f7 3d d3 9e 58 bd c2 e3 48 3d
       0.050937034 0.12062057 -0.05288584 0.04904533
000030 3b 22 a1 3c 02 ab af 3b fc be 2e 3e 99 b8 f8 3c
       0.019669643 0.005360962 0.17065042 0.03036146
000040 ca 71 bf b9 06 48 d9 bd dd 1b 0d bd 37 0f a9 bd
       -0.00036515138 -0.106094405 -0.0344504 -0.08254855
000050 75 4a 0d 3d 6a eb 7c bd 30 4b 9d bd 4b f9 8d bd
       0.034494836 -0.061747946 -0.076803565 -0.069323145
000060 34 fb d0 3c 2d 2e 72 bd e1 3f 2b bd 52 8f 45 3d
       0.025510408 -0.059126068 -0.041808967 0.048232384
000070 f7 e2 e5 bb a5 10 dc 3a 4d 78 0a bd d4 c0 a9 3c
       -0.0070155817 0.0016789628 -0.033806134 0.02072183
000080 a9 55 ca bc df 46 09 be eb fe 6c bd 7b 8a 73 bd
       -0.02469905 -0.13405941 -0.057860296 -0.059458237
000090 a6 d8 7c bd 51 6e 8c bd 38 6d 0d be e9 07 72 bd
       -0.06173005 -0.06856979 -0.13811195 -0.059089575
0000a0 28 7a 97 bd 28 32 3a bd bd d7 29 bd c6 f1 15 bd
       -0.07396346 -0.04545799 -0.04146551 -0.036607526
0000b0 ec a7 89 3d 1c 93 a1 3d 27 43 84 3d ee 11 be 3d
       0.06721482 0.07889387 0.06458121 0.092807636
0000c0 b1 fb 8f bc 3c 16 1c 3e e6 00 34 3e 7f 94 a2 3d
       -0.01757607 0.15242857 0.17578468 0.0793848
0000d0 5b ea 0b 3d 2b eb 10 3d dc 96 86 3d 94 39 7f bc
       0.034159046 0.035380524 0.06571743 -0.015577693
0000e0 96 6a 6b 3b 8f 35 ab bd 71 a3 f8 3d 68 f7 93 3c
       0.0035921684 -0.08359825 0.12140549 0.018062308
0000f0 f4 81 e3 3d 3b 9b 95 3c 35 87 ef 3d 9b 98 99 3d
       0.11108771 0.018262496 0.116957106 0.0749981
000100 ec da ea bc 7d cf 27 bd 8e 2a 40 bd 7b ac fe bc
       -0.028668843 -0.04096936 -0.046915583 -0.031088104
000110 83 82 1f be 11 02 2b be 9b 37 8e bd 1a 7b 3e 3e
       -0.1557713 -0.16700007 -0.069442 0.18601647
000120 d7 3f 1b bd 1e 8e 54 3c 8f 44 ee bc c6 ae 8c 3c
       -0.03790268 0.0129733365 -0.029085426 0.017173182
000130 67 19 08 3c 62 15 a1 bd 44 0f d9 bd 91 4b 92 b8
       0.008306838 -0.078654066 -0.10598615 -6.975898e-05
000140 56 12 10 be 2b 0e 90 be e0 7b e1 bd e0 7b 56 3d
       -0.14069495 -0.2813581 -0.110099554 0.05236423
000150 5a 94 33 3c a9 9e ef 3c 3d 36 ec bd bb 00 00 be
       0.010960663 0.02925046 -0.11533783 -0.12500279
000160 19 cb 90 3d 4a d9 64 bc 31 f7 d4 bd 99 fc c6 ba
       0.07069988 -0.013967821 -0.103987105 -0.0015181481
000170 c1 28 f7 3c b8 d8 66 3d 14 eb 7e bd 7e f6 85 3c
       0.0301708 0.056359023 -0.062235907 0.016352888
000180 8b c3 0f be 1d 12 8b be ff 2c c7 bd 22 c6 5c bd
       -0.14039437 -0.27162257 -0.09725379 -0.05389989
000190 50 44 15 be 87 f0 b2 bd 76 f4 00 be 78 6c fb bd
       -0.1457684 -0.08737283 -0.12593254 -0.12276548
0001a0 1e a1 af 3d 69 45 39 3d 38 91 bc 3c 72 5b 65 3d
       0.085756525 0.04523221 0.023018464 0.055995412
0001b0 9d e0 e6 bb f9 ee 84 3d 44 af e1 3d 47 c5 86 3d
       -0.007045819 0.06490893 0.110197574 0.065805964
0001c0 66 fa 5f bd d9 bf 90 3d 16 87 d6 3d 54 d9 7f 3c
       -0.054682158 0.07067842 0.10474984 0.01561578
0001d0 89 f9 c2 3d 57 75 ba 3c 38 8c 57 3d 6b 70 c0 3d
       0.09520251 0.02276103 0.052623957 0.09396442
0001e0 c0 7d 81 3c 27 09 86 3d 93 59 96 bd b5 f9 34 3c
       0.015807033 0.065447144 -0.07341304 0.011045863
0001f0 98 52 7d bd 03 31 a6 3d 03 ff 30 bc 55 53 14 bd
       -0.061846346 0.08114817 -0.010802987 -0.036212284
000200 96 5e 93 3c 2a bf 27 3d cc 60 7c bc a0 41 f6 3c
       0.017989438 0.040953793 -0.015403938 0.03006059
000210 fe 13 60 bd c2 40 81 3c 9d ce 36 bd 7f e0 4e 3c
       -0.054706566 0.01577795 -0.044630636 0.012626766
000220 ae 49 ea 3c a6 6f 66 3d 11 62 5a bb 10 0f 8b 3d
       0.028599586 0.05625882 -0.0033322612 0.06789982
000230 4d 8e 6a bd f5 3d 24 3d 20 1f e3 bc 47 92 2f bd
       -0.057264615 0.04009815 -0.027724802 -0.04286411
000240 bd 5d 09 be 44 9b 15 3d 3a 0e bf 3d 6f ed ec bd
       -0.13414665 0.036525026 0.093288854 -0.11568724
000250 59 f3 16 3b 27 51 68 bd 0b 11 ac 3d 41 04 81 3c
       0.002303323 -0.056718018 0.08401688 0.015749099
000260 11 18 1d 3e 93 95 64 3b bf bc f1 39 5a 11 8d bc
       0.15341212 0.0034879192 0.0004610773 -0.017220188
000270 42 91 88 bc 57 43 09 3d d2 c6 55 3c 22 27 34 bd
       -0.016670827 0.033511486 0.013047891 -0.043982632
000280 bb 6b 8a bd fb 0a 70 bc 57 c2 90 3d ce bb 68 3e
       -0.06758829 -0.014651055 0.070683174 0.22727892
000290 76 19 cb bb 77 73 9d 3d 0c 67 4d bc c7 f0 f7 bc
       -0.0061981035 0.07688039 -0.012536775 -0.030266179
0002a0 0f 52 1e 3e ae e0 a3 bd 7f 17 f7 bb 13 ca 9c bd
       0.1546099 -0.080018386 -0.0075406427 -0.0765573
0002b0 d8 07 ac 3d c5 2f 00 3d a7 9b 1a bd 5e b4 24 3c
       0.083999336 0.031295557 -0.037746098 0.0100527685
0002c0 80 af 49 bd b1 89 1d 3d db 27 ba 3c 5c fa 19 bd
       -0.049239635 0.03846139 0.022724083 -0.037592277
0002d0 99 1e 81 bc 61 b6 03 ba 47 4d 70 bd ac ac 4b bd
       -0.01576166 -0.000502443 -0.058667447 -0.04972522
0002e0 66 d8 42 3d 8e 88 63 bd c1 e4 eb bd 12 b8 dc bd
       0.047569655 -0.05555015 -0.11518241 -0.10777296
0002f0 27 e5 d2 3d 9b 53 6e 3d 50 a9 7f 3d d7 53 5a bd
       0.102976136 0.0581852 0.06241733 -0.053302612
000300 53 64 e1 3b de 9d e7 bd 72 2b 8c 3c d4 da da bd
       0.0068784147 -0.11309408 0.01711056 -0.106862694
000310 a0 8d d2 3d 7e 92 82 bd 0a 49 b6 bd 92 c8 cd bd
       0.10280919 -0.063755974 -0.0890065 -0.100480214
000320 9e 4c ab bc 11 2b 2d 3d d0 d9 91 3c 99 ba 01 bc
       -0.020910557 0.0422774 0.017804056 -0.0079180235
000330 e8 7b 99 3c 25 5b cf bd a8 26 77 bd f7 6b 80 3d
       0.01873584 -0.10124806 -0.0603396 0.06270593
000340 15 1c f2 3d 13 ca 2a 3e d8 a8 17 3e e5 91 16 bc
       0.118217625 0.16678648 0.14810503 -0.009190057
000350 1f 29 9b bc bb 84 a1 3d c6 4f 9a bc bf 3b 8a 3d
       -0.018940507 0.078866445 -0.018836867 0.06749677
000360 6a 4d eb bc 3f 48 36 3d ec 00 bb bd 2c d8 89 bd
       -0.028723437 0.044502493 -0.09131035 -0.06730685
000370 01 8d 5d bd 10 7f 65 bd c5 24 26 bc 11 25 34 3d
       -0.05408955 -0.05602938 -0.0101406025 0.04398066
000380 37 ad dd 3d de db 31 bd ae 73 bb bd da 6f f1 bd
       0.10824054 -0.043422572 -0.091529235 -0.11788912
000390 c0 25 0f be d0 6b 14 be 32 f1 11 be a7 46 75 bc
       -0.13979244 -0.14494252 -0.14252165 -0.014970458
0003a0 e4 8d 97 bb 61 51 56 3d 6a b6 81 3d e9 a3 ea 3b
       -0.004625069 0.052323703 0.06333621 0.007160653
0003b0 75 86 9b 3d b3 a1 8a bc 47 6e 11 3e 2e de 83 3d
       0.07594005 -0.016922807 0.14202224 0.06438862
0003c0 bb 75 b7 bc d4 2e 32 bd dc d4 c4 bc 88 95 9d bc
       -0.022395005 -0.04350169 -0.02402728 -0.019236341
0003d0 35 78 02 3d 68 a4 f0 3d b4 4d 85 bd 90 a3 ee 3c
       0.03185292 0.11750108 -0.06508961 0.029130727
0003e0 b6 e9 a6 bc 2d bc df 39 3f b0 a8 bd 93 79 58 3d
       -0.020375114 0.00042674076 -0.08236741 0.052850317
0003f0 e1 c5 55 3d 3b 8c 30 3d a1 10 55 bc 95 fa 6e bd
       0.052190665 0.043102484 -0.013004453 -0.058344442

F5.bias f4 [120]
000000 e8 b7 a2 bd fc eb 20 3d 1a 71 a3 bd 90 a3 29 bd
       -0.079452336 0.039287552 -0.07980557 -0.04141575
000010 92 81 69 bc 67 15 94 3d 65 db 02 3d 53 d8 26 bd
       -0.014252083 0.07230645 0.031947512 -0.040733647
000020 f9 60 32 bd e5 90 7f 3b 08 53 47 bd 7a bc 4e bd
       -0.04354951 0.0038996276 -0.04866317 -0.050472714
000030 9b 3c 04 3c 4d c7 25 bc 63 03 03 3d 94 3c 9c 3b
       0.00807109 -0.010118318 0.03198565 0.0047679637
000040 d4 dd 88 3d b6 9d 08 bc a5 09 d1 3d 6e 5e c4 3c
       0.06682935 -0.0083383825 0.10206918 0.023970809
000050 ab ba ac 3c 97 ea 36 3c dd 1b 38 bd 27 f8 90 bd
       0.021085104 0.011164329 -0.044948447 -0.07078581
000060 eb bd 2a 3d a0 ec d5 bc 5c 10 b8 3c 23 18 8d 3c
       0.041685026 -0.026113808 0.022468738 0.017223423
000070 8d 82 5e bd c3 c3 95 bd 15 49 84 bd 5d 7e 46 bd
       -0.05432372 -0.07312729 -0.06459252 -0.048460353
000080 bd 6b 87 3d be e8 94 3c cf d3 8e 3d 19 96 1d 3d
       0.06612346 0.018177386 0.06973993 0.038473222
000090 a8 8c cc 3d 5e 3a 42 bc 0c 2e 4e 3d 29 94 c1 3a
       0.099877656 -0.011854736 0.050336882 0.0014768887
0000a0 65 65 54 3d fa d7 44 3c 65 10 2d 3c 4d 31 67 3d
       0.05185451 0.012014383 0.010562991 0.0564435
0000b0 3b ce a1 bc 96 0d d8 bc 12 78 c2 bb 50 44 7e bd
       -0.019751659 -0.026373666 -0.0059347237 -0.062076867
0000c0 36 31 23 bc 8a 70 54 3a 9d 31 88 3c b6 ca 33 3c
       -0.009960463 0.0008103928 0.01662522 0.010973623
0000d0 f1 5a 75 3c 34 ff 3d bc b9 c0 49 3d 68 20 95 bd
       0.014975295 -0.01159649 0.04925606 -0.072815716
0000e0 10 00 e4 bc 63 30 c6 bc 48 44 25 bd d7 fa 59 bd
       -0.027832061 -0.024192994 -0.04034832 -0.053217735
0000f0 f6 f3 8d bd b6 e9 0c 3d d9 f7 ae bb d1 05 55 bd
       -0.069312975 0.03440257 -0.0053396043 -0.0520075
000100 df 72 41 bc 37 ff 21 bc 78 dd db bd 09 0b 28 3d
       -0.011807173 -0.009887508 -0.10735601 0.04102615
000110 1e f6 b3 bd 76 48 97 bc f7 c2 99 3d 65 7f 9a 3d
       -0.087871775 -0.01846717 0.0750789 0.0754383
000120 35 70 85 bd 39 44 a2 bb 1c 48 92 bc 0f 36 5f 3d
       -0.065155424 -0.0049519804 -0.01785665 0.054494914
000130 59 1a 63 bd bf 59 c0 3d 23 93 4e 3d d4 c2 29 3d
       -0.05544505 0.09392118 0.05043329 0.04144557
000140 7c 2f eb 3c 7a b5 c8 3d 79 ea 01 bd 29 ff 65 bd
       0.028709166 0.09800239 -0.03171775 -0.056151543
000150 ab e5 01 3d 10 e1 bc 3c 61 c6 59 bd 32 f2 49 bc
       0.03171317 0.023056537 -0.053167704 -0.01232581
000160 89 72 9c 3d d6 c8 55 bb 08 2f a2 bd 80 cb 9c bc
       0.07639033 -0.0032620928 -0.07919127 -0.019140005
000170 d9 89 9c bc cd 32 ad 3d bc 43 cf 3b ca 01 8f 3c
       -0.0191087 0.08456955 0.0063252132 0.017456908
000180 b5 b4 b5 3d 5c 39 26 bc 53 a2 0a 3e 45 96 38 bd
       0.08872358 -0.0101455115 0.13538484 -0.045065183
000190 8e 22 91 bc 27 18 5a bd 61 da 60 bc a1 c9 50 bd
       -0.017716672 -0.05324569 -0.013723941 -0.05097354
0001a0 4b 64 ef 3b 20 45 ca bc 6b 88 d5 3c c5 58 07 bc
       0.007305657 -0.024691164 0.026066026 -0.00826091
0001b0 7f c6 0d bd 30 e3 12 3b c2 40 f3 3d ca fa cb 3c
       -0.03461313 0.0022413246 0.11877586 0.024899859
0001c0 ca 7b 52 bd f1 2b 90 bc 3a bc 7c bc f7 19 97 bd
       -0.051387586 -0.017599078 -0.015425736 -0.07377999
0001d0 ab f8 75 3d 4f 40 92 3d 79 cd 41 bd b3 4b 0c 3d
       0.0600516 0.07141172 -0.047315095 0.03425188

F6.weight f4 [84, 120]
000000 57 40 64 bd 0b e9 95 bd 90 81 49 3e 0a b9 34 3e
       -0.05572542 -0.0731984 0.1967833 0.17648712
000010 3a a4 72 bd 50 50 10 be 8b 24 d2 3b 65 96 b6 3d
       -0.05923865 -0.14093137 0.0064130477 0.08915404
000020 30 54 21 bd d5 39 f4 3c 63 b3 5e 3d 13 0c d0 bd
       -0.039386928 0.029812733 0.054370295 -0.10158553
000030 c6 7b 4f be 8f 21 17 bd e5 e5 06 3d 4e fc 20 3d
       -0.2026206 -0.03689724 0.03293409 0.039303117
000040 f6 24 9a bc 1d 2b a7 3d df 5d ac 3d f7 b0 13 3e
       -0.018816452 0.0816252 0.08416342 0.14422975
000050 c8 b9 89 3d 96 6f bc 3d 64 35 3b 3c 2d 63 3a 3c
       0.06724888 0.09200971 0.011426304 0.011376184
000060 f7 84 b4 bd b2 3e 24 bc 4e 40 10 be 2b 76 a6 3d
       -0.088144235 -0.010024713 -0.1408703 0.081280075
000070 7c 77 b0 3d ef c6 f1 bb a6 bc e1 bb 42 96 83 3d
       0.0861654 -0.007378451 -0.0068889437 0.06425144
000080 e9 f2 29 3e fc 14 8a bc 91 f1 a2 bd ed e3 1b 3d
       0.16596569 -0.01685571 -0.079562314 0.038059164
000090 b1 23 30 bd 23 e7 95 3d e4 f6 0a 3e 7a 49 8c 3c
       -0.043002788 0.073194765 0.13570744 0.01712488
0000a0 14 6e e3 bd 25 be ad 3d 07 da 7e 3d 84 13 d4 bc
       -0.1110498 0.08483533 0.062219646 -0.025888212
0000b0 f9 c3 ae 3c 4f 36 e2 3c bd 8f e3 bc b3 9f ac bb
       0.021333681 0.027613787 -0.0277785 -0.005268061
0000c0 82 ba a0 3d 24 8e 12 3d 8a c5 a2 3d 0f 05 dd ba
       0.078480735 0.035780087 0.07947834 -0.001686247
0000d0 5d 43 91 bd cf 0e 87 bd e4 55 67 bb b3 2c 4a bc
       -0.07092927 -0.065946214 -0.0035298998 -0.012339759
0000e0 2a f6 b1 3d 55 70 e0 3c ea 6f b5 3c cc 18 3f 3c
       0.0868953 0.027397314 0.022148091 0.011663627
0000f0 1e f7 01 be 2f 6a 83 bd 12 27 78 3c cb 28 78 3d
       -0.12691924 -0.06416737 0.015146034 0.06058578
000100 95 55 21 3d 01 45 1b bd c8 25 b5 bc 84 3e 06 bd
       0.039388258 -0.037907604 -0.022112742 -0.032774463
000110 ad 67 4a bc fd a5 03 3d 60 29 71 3d d1 83 ec bd
       -0.01235382 0.03214072 0.05887735 -0.115485795
000120 43 23 e0 3a c0 99 4c bd 07 25 fe bd ee cc 58 3d
       0.0017100353 -0.049951315 -0.12409406 0.05292981
000130 ab 73 24 3d 0d 9e 01 3e 61 f1 b3 bd 0c f5 77 bd
       0.040149372 0.12657948 -0.08786274 -0.06053643
000140 27 5d 32 bd 11 1e 83 3d ad 65 56 3d 9c 7c ab 3c
       -0.04354587 0.06402219 0.05234306 0.020933442
000150 77 bb 70 3d bc 94 19 3c 1f f0 08 be a7 4c fe 3c
       0.05877253 0.00937384 -0.13372849 0.03104241
000160 5e 24 89 3d 2a f8 e9 3b 45 5d 2f bd 32 92 f0 3c
       0.066963896 0.007140179 -0.042813558 0.029366586
000170 8a c4 b7 3d 2f e6 89 bb c5 2e ef 3d f8 f5 b6 3d
       0.08973034 -0.004208348 0.116788425 0.089336336
000180 c0 97 a5 bd 4d 44 25 3d b5 8c 9c bd f6 4f e0 bc
       -0.08085585 0.04034834 -0.07644025 -0.027381878
000190 1d e5 72 3c f1 0c 21 3d ba f0 21 bc 3e 65 09 be
       0.014825133 0.039318983 -0.009884054 -0.13417527
0001a0 69 03 ef bd 46 f3 57 bd c4 ae 40 3d 2a 77 e5 bd
       -0.11670572 -0.052722238 0.04704167 -0.11204369
0001b0 8b c9 ac 3d f6 aa 0e 3d a5 c0 ce 3d 07 18 ee bc
       0.08436879 0.03483101 0.10095338 -0.029064192
0001c0 5a fb 80 3d 77 01 3e bd 2e 1b be bd 27 2b 82 3d
       0.062979415 -0.046388116 -0.09282528 0.06355887
0001d0 02 3c 14 bc 61 fd 6e 3d a4 96 16 bd b7 1d 4c bd
       -0.00904751 0.05834711 -0.036764756 -0.049833026
0001e0 d9 3b 4d 3c 26 7a 43 bd ad d6 a1 3d 1e 06 8f 3d
       0.012526476 -0.04772391 0.07902274 0.06983589
0001f0 f9 d7 9a 3d ba e6 a9 bd a7 f9 3f bc f8 63 ef bc
       0.07560725 -0.08295961 -0.011717237 -0.029222474
000200 f5 b3 b0 bd 71 7c 67 bd c6 c4 5f bd 36 9f 98 bd
       -0.08628074 -0.05651516 -0.054631017 -0.07452242
000210 24 ed 55 bd 0b ce a9 3d 7c 6a 1f bd 6b 6a 2b 3c
       -0.052228108 0.08291253 -0.03891991 0.010462384
000220 91 92 8f bc 60 0e 68 bd 2a 37 a6 bd 47 b9 39 3d
       -0.017525943 -0.056654334 -0.081159905 0.04534271
000230 c5 af ad bd 24 ab 10 3c 8d 31 bc 3c c7 cc 2c 3d
       -0.08480791 0.008829866 0.022972846 0.04218748
000240 06 9f 5d bb dc c3 d0 3b 4d 39 80 3d 0b e1 55 bc
       -0.003381671 0.0063710045 0.06260929 -0.013054143
000250 e0 ec a9 bd 75 22 88 3b 59 37 28 3d f2 3b c4 3c
       -0.082971334 0.004154498 0.04106841 0.023954365
000260 dc ce c7 3d fe 17 af 3c 4f f4 f1 b8 4f 0f 6d bd
       0.09756252 0.021373745 -0.000115372815 -0.057875928
000270 dd 0b 52 3d 97 48 70 bc 8e 0b 14 3d 55 8a a1 bd
       0.051280845 -0.014665744 0.036143832 -0.07887713
000280 67 a5 17 bd ab da b2 bc 81 c6 44 3c 52 95 c7 ba
       -0.037022974 -0.021832785 0.012010218 -0.0015226996
000290 90 6d 33 3d 01 49 6d 3d f7 3e 97 bd b4 01 05 bd
       0.04380566 0.05793095 -0.073850565 -0.032472327
0002a0 a1 e5 58 bd 10 28 6e 3c 5f e6 72 3d 0c e0 b3 3d
       -0.052953366 0.014535919 0.05930173 0.08782968
0002b0 44 74 a7 3d f2 25 de 3c 69 e9 d2 bd ec bd a2 3d
       0.08176473 0.027117703 -0.10298426 0.07946381
0002c0 a7 9c b8 3d 65 10 92 bd 90 16 44 bd 41 49 35 bd
       0.09014254 -0.07132033 -0.04787308 -0.044259313
0002d0 d8 59 35 3c 7a 03 c1 bd db 2b f5 3d af ae ba 3d
       0.011068784 -0.09424491 0.119712554 0.091153495
0002e0 83 f8 32 3b 7f f0 a4 bd 5e c9 81 bc f8 61 58 3d
       0.002730877 -0.080536835 -0.01584309 0.052827805
0002f0 17 b1 09 bd 50 5b bf 3d 81 d0 18 bd 05 fa 3b bd
       -0.03361615 0.09343588 -0.03730822 -0.045892734
000300 7b 90 34 3d f1 77 1b bd fc 6c 1a 3d 93 ea 6c bc
       0.0440831 -0.037956182 0.03770159 -0.014460224
000310 da a1 04 3a 0a 01 f4 bc 77 08 7d 3d a4 bd 3d 3d
       0.0005059518 -0.029785652 0.06177565 0.046323434
000320 87 c1 73 3d df 4f 43 3d 4b 8c 79 3c 24 58 ae 3d
       0.059510734 0.047683593 0.015231202 0.08512905
000330 47 c7 8e 3c 1e 2e 52 bd b9 14 b5 bd 4e 94 a7 bd
       0.017429007 -0.051313512 -0.08841843 -0.08182584
000340 56 39 29 bd 23 35 3c bd fd 5f 6a bd b4 f7 43 bd
       -0.041314445 -0.045949113 -0.057220448 -0.04784365
000350 df 50 23 bd 3d e8 fc bc fd e8 40 bd 31 fd 5a 3c
       -0.039872047 -0.030872459 -0.047097195 0.01336603
000360 b5 ce 8b bd 64 84 c5 3a 92 a9 0f 3d ff ce 47 bc
       -0.068265356 0.0015069363 0.035073824 -0.012195348
000370 7b 54 2e 3d c1 02 91 bd 17 fb 72 bd ce b4 0f 3d
       0.042561036 -0.070806034 -0.05932149 0.03508454
000380 a0 e2 60 3d 09 de 52 3c ff 99 3c bd df fd 92 bd
       0.054903626 0.01287032 -0.0460453 -0.07177328
000390 c6 72 85 bd 74 2b 93 bd d7 d0 00 3d 58 f7 e4 3c
       -0.06516032 -0.071860224 0.031449165 0.027949974
0003a0 d5 cf 50 bd 77 f5 b1 3c f5 cd 5b bd 49 7d d1 3b
       -0.050979454 0.021723492 -0.053663213 0.006393109
0003b0 0f f4 32 bc b6 7d 4d bd d4 ae 38 3d c3 aa 5b bd
       -0.010922446 -0.050168715 0.045088604 -0.053629648
0003c0 e3 12 97 3c bc 64 56 bd da e9 68 3d 19 85 80 3e
       0.018441623 -0.05234216 0.056863643 0.25101545
0003d0 03 08 d4 bd dc 0f c0 3d 3d 16 3c 3e 34 e5 e6 3d
       -0.103530906 0.09378025 0.18367858 0.11274186
0003e0 bb 88 76 bd e9 26 e3 bd 07 ad f7 3c 3e d5 10 3e
       -0.06018899 -0.11091406 0.030233873 0.14143845
0003f0 57 ff cf bd ea 6d b2 bd 23 6c 26 bd a2 00 b0 3d
       -0.10156124 -0.08712371 -0.04063047 0.08593871

F6.bias f4 [84]
000000 c3 6d aa 3d 47 3f 1f bc 1c e4 81 3d 16 63 fa 3d
       0.08321717 -0.009719676 0.063423365 0.122259304
000010 39 8d bf bc d2 d2 95 b9 1d 50 92 3d f5 ad 23 3e
       -0.02338277 -0.00028576568 0.07144187 0.15984328
000020 3d 57 70 3d d6 ed 30 3c fb 19 99 bd 37 dc 0d 3e
       0.058676947 0.010798892 -0.074756585 0.13853537
000030 f9 2c 64 3a 13 d7 03 3d 3d d3 46 3c be 86 67 3e
       0.0008704211 0.032187533 0.012135324 0.22609994
000040 4f c0 ca ba 27 58 72 bd c3 fe 27 bc 3b 10 8f 3d
       -0.0015468689 -0.0591661 -0.010253611 0.069855176
000050 b7 62 fa bc 68 5b b3 bd 1a 26 1e 3e 6c 2d 77 bd
       -0.030564649 -0.08757669 0.15444222 -0.060346052
000060 59 c6 0d 3e 71 73 45 bd dd 8f 03 3d 1c c0 f6 3b
       0.13845195 -0.048205797 0.03211962 0.0075302254
000070 bc 36 60 3d 1d bd 26 bd 59 29 52 3d 02 26 26 3d
       0.0547397 -0.040707696 0.051308963 0.04056359
000080 0c 91 a8 bd 26 5c 28 3d bc d6 0c 3d c7 e4 8a 3c
       -0.082307905 0.041103505 0.034384474 0.016954793
000090 24 fb 25 ba 66 f8 6e bd 78 48 18 3d b9 78 b1 bd
       -0.00063316734 -0.05834236 0.037178487 -0.08665604
0000a0 b3 da 7c 3d 81 47 9c bc 45 db a5 3d 77 63 b4 3d
       0.061732005 -0.019077064 0.08098463 0.08808034
0000b0 5a 41 a7 3c 0f e0 42 3e 70 e8 b1 bd a4 bd 7c bb
       0.020416904 0.19030784 -0.08686912 -0.0038565183
0000c0 47 20 d4 3d 9a 0a 2e bd e3 51 a3 3d 83 4e 1f 3e
       0.10357719 -0.04249058 0.07974603 0.15557294
0000d0 ea 0b 5c 3c cb 9d 69 bd 13 33 54 bc 05 83 c3 3c
       0.013430575 -0.05703525 -0.01295163 0.023866186
0000e0 28 f8 20 3e b8 21 e5 bd 6c dc b6 bd 5c e5 75 bd
       0.15719664 -0.11188072 -0.08928761 -0.060033187
0000f0 fc e4 a8 3d 43 98 b4 3d 1c 56 2c 3d a9 31 c7 bc
       0.082468 0.08818104 0.042074308 -0.024315672
000100 29 e1 22 bd 32 48 13 3e 8a 37 ca 3c 08 f3 30 3d
       -0.03976551 0.14383009 0.024684686 0.043200523
000110 84 0c df 3d 02 26 2e 3e cf f0 5d bc e4 fe 56 bd
       0.10891059 0.17006686 -0.013546183 -0.052489176
000120 52 04 8e 3d 40 29 c7 3d 23 f0 fe 3d 6c 0b 4a 3d
       0.06934418 0.09724665 0.12448146 0.0493273
000130 7b 6a 09 3e 6d a5 9e bd dd e0 92 bd 5f 81 4f bc
       0.13419525 -0.07746396 -0.071717955 -0.012665122
000140 ba ed 12 3c 9b fa df 3d b7 b5 32 3d 35 84 24 3e
       0.008967811 0.10936471 0.043630328 0.16066058

output.weight f4 [10, 84]
000000 6d 6c 19 3e 8b 46 a5 bd fa 9e 22 3e c6 ef e0 bd
       0.14982767 -0.08070096 0.15880957 -0.10983233
000010 1e 97 44 be dc d5 a2 3c 29 38 94 be 08 dc 65 be
       -0.19198272 0.019877367 -0.28949097 -0.22447217
000020 a9 27 cb be bc 5c 86 3c bf 9c 11 3d d1 b8 14 be
       -0.39678696 0.016401641 0.035549875 -0.14523627
000030 b8 5a ae 3d 8f a4 6b bd a4 f7 ef 3d ff db 45 3e
       0.08513397 -0.057529982 0.117171556 0.19322203
000040 0e 83 9b bd 52 f1 0e be 63 b4 ca bd a7 65 65 be
       -0.07593356 -0.13959244 -0.09897687 -0.22402059
000050 c8 71 c6 bd e7 0c 47 3d 6f 87 f7 bd a0 2b 54 bc
       -0.09689671 0.04859629 -0.12086379 -0.012949854
000060 24 55 4a bd 93 90 2b 3e c2 8a 2a 3e 64 a7 22 3f
       -0.049397603 0.1675437 0.16654494 0.6353667
000070 e8 4e 73 3e 9d 9b 53 3d ed 9b 89 bd 86 0e 0b 3d
       0.23760569 0.051662076 -0.067191936 0.033949398
000080 5e 5c 06 be ac a4 38 3e b2 97 ad 3e 4e 31 a6 be
       -0.13121173 0.18031567 0.33904797 -0.32459491
000090 77 39 ca 3e 2f 15 24 bd b6 4e e0 3d 42 71 93 3c
       0.39496967 -0.040059265 0.10952513 0.017998341
0000a0 59 fb 42 be da 6e 52 be d0 3c ff bc cd be fc 3d
       -0.19041194 -0.20550099 -0.031156927 0.1234108
0000b0 82 30 8e be 26 50 92 3e ce c6 e7 bc a5 b6 06 3e
       -0.27771384 0.28576773 -0.02829304 0.13155611
0000c0 d6 97 17 be 8b ef 1b be 80 58 04 bd 15 a5 5d be
       -0.14804015 -0.15228097 -0.032310963 -0.21645005
0000d0 f9 25 8e 3e 8a 14 90 3d b5 93 9e be d6 3d 4e 3d
       0.27763346 0.070351675 -0.30972067 0.05035194
0000e0 89 04 1b bd b5 70 a2 3c 3c 4b 28 bc a7 a7 0b 3d
       -0.037846122 0.019829134 -0.0102718435 0.034095433
0000f0 0f 43 26 bd 65 9b 9f 3e 09 0c 0b be 47 5d 5a be
       -0.040591296 0.31173244 -0.1357881 -0.21324645
000100 44 54 a5 bd b3 30 67 be e4 8d 42 bd 97 33 ae 3d
       -0.08072713 -0.22577171 -0.0474986 0.08505934
000110 d1 da 91 3d a6 ae 7e be 70 75 1a bd fa 35 e4 3d
       0.07121814 -0.2487131 -0.037709653 0.11143108
000120 9c ea b6 bd 87 5f 6a 3d 61 1d f5 bd 45 22 39 be
       -0.08931467 0.05722001 -0.11968494 -0.18079479
000130 a8 0b d8 3d 80 8d 2a 3d c5 04 3e bd b1 58 a9 bd
       0.10549098 0.04163885 -0.046391267 -0.0826887
000140 4b ce ae 3d fe cd 8d be 1e b1 12 3c 03 de 4f be
       0.08535441 -0.27696222 0.008953361 -0.20299534
000150 b4 6c 25 be d4 0f d0 3d 77 81 dc bd 63 37 b4 3e
       -0.16154748 0.10159269 -0.10766881 0.35198507
000160 97 00 70 be db 46 0d 3b d1 ea c1 3d 1d 36 4a 3e
       -0.23437725 0.0021557126 0.09468616 0.19747205
000170 3e 11 08 3d 24 82 92 3e e1 b0 38 3d d7 69 00 3e
       0.03321957 0.28614914 0.04509056 0.12540375
000180 ff 5e e2 3b ee 6d 08 bc 69 2b 9c 3d db 5a a5 be
       0.006908297 -0.0083269905 0.07625467 -0.3229588
000190 c7 47 f1 3d e4 12 8e bc d2 39 a7 bd 7f 8f 83 3e
       0.117812686 -0.017342992 -0.08165325 0.25695416
0001a0 0a ef 56 3c ea bf 8e bd 12 b5 85 be 05 c2 57 bd
       0.013118515 -0.069701985 -0.26114708 -0.052675266
0001b0 14 2d ad be b8 1e f6 3d e1 1c 0e be ff 29 39 3d
       -0.33823454 0.12017578 -0.13878204 0.045206066
0001c0 de 55 22 3e d6 34 b8 3d a4 04 17 bc 3a 38 e6 bc
       0.15853068 0.08994453 -0.009217415 -0.028102983
0001d0 8d be e3 bc 2f 2b 4e be 7a 0c 80 3c 8e 55 73 bd
       -0.027800823 -0.2013366 0.01563095 -0.059407763
0001e0 65 a5 24 3d 70 e2 f0 3d fb b4 f5 3e 64 23 5f 3e
       0.040196795 0.117619395 0.4798964 0.21790844
0001f0 9b fa 17 3e b3 bd 37 3d 7b 71 ae 3e c6 99 c3 bd
       0.14841692 0.044858646 0.34070954 -0.09550814
000200 11 f4 48 3d 9d a8 75 be b5 5c 0d bd 7b 62 d0 bd
       0.049060885 -0.23990102 -0.03451224 -0.10175034
000210 87 c9 89 be 71 25 12 3c 95 8a c9 bd 6d fb 97 3e
       -0.26911566 0.00892006 -0.098408855 0.2968401
000220 7f ef d6 be 3c ff f3 bc 74 22 de 3c e5 84 8e be
       -0.41979596 -0.029784791 0.027116038 -0.27835765
000230 a1 7d 2b be 54 30 72 3e bb 03 bf 3d 1c 22 99 3d
       -0.16747142 0.23651248 0.093268834 0.07477209
000240 60 b1 b4 3c 0d 02 2e be 1c eb 47 3e 87 61 1c be
       0.022057235 -0.1699297 0.19523281 -0.15271579
000250 1c 4a 1c 3e b5 08 a8 3e 99 09 d5 bd b9 46 c2 bd
       0.15262645 0.32819143 -0.10402221 -0.094861455
000260 6a cf 3b bd 38 e1 20 3d a7 6b e8 3e e1 52 e5 bd
       -0.045852102 0.039277285 0.45394632 -0.111974485
000270 5e 27 65 be cc 2a 82 be c5 ae 80 3d eb d1 5e 3e
       -0.22378299 -0.25423276 0.06283335 0.21759765
000280 89 c1 09 3e 3c a4 42 be 59 60 1c bd d5 17 a2 bd
       0.13452734 -0.19007963 -0.03817782 -0.07914702
000290 d9 db d4 be b8 81 4b be 73 81 01 be bc fa a3 be
       -0.4157398 -0.19873703 -0.12647037 -0.32027233
0002a0 d3 f3 ee 3d 29 c3 a8 bd 58 54 ea 3e 5b 93 cf 3d
       0.116675995 -0.08240349 0.45767474 0.10135528
0002b0 ec d5 66 3e 02 b1 27 3d e8 ea 00 3d 84 e2 9f 3e
       0.22542542 0.040940292 0.031474024 0.31227505
0002c0 7f 9b b6 bd f6 97 25 be df 64 e5 3d 48 12 8a be
       -0.08916377 -0.1617125 0.1120088 -0.26967072
0002d0 2c 44 25 3e 2e b9 ca bd 07 1f 11 3d 30 11 17 be
       0.16139287 -0.098986015 0.03542998 -0.1475265
0002e0 7b 38 3b 3e b3 31 c1 bd bd 3e 3d bd e8 cc 34 be
       0.18283264 -0.094333075 -0.04620241 -0.1765629
0002f0 be 49 36 3c 9a 2c 95 3d 3e 0c c0 bd 8b 94 19 bd
       0.01112598 0.07283898 -0.09377335 -0.037495177
000300 68 54 c3 3e 62 95 26 be 97 7b 7e bd 9c 30 74 be
       0.38150334 -0.16267923 -0.062129583 -0.23846668
000310 0c ce 47 3e be af a8 3c 26 7a 82 be 80 0a b5 bd
       0.19512194 0.020591613 -0.25483817 -0.08839893
000320 af 4e 0a 3d 11 4e 1d 3e 31 65 3e 3e 35 cd b3 bd
       0.033766445 0.15361811 0.18593289 -0.087793745
000330 47 2f 41 3e 66 4b 09 be 20 4b 1a 3e 11 4f a6 bd
       0.18865691 -0.13407668 0.1506772 -0.081205495
000340 7a 8a 60 be 01 57 76 3d 91 5e 9a be f8 a8 4d bd
       -0.21927825 0.060141567 -0.30150273 -0.05020997
000350 36 15 c3 3d df 02 26 be a9 42 eb bd 92 a4 4b ba
       0.0952553 -0.16212033 -0.11487324 -0.00077683583
000360 64 5a bf 3e e5 f5 0a 3e 85 d4 bc bd f5 18 aa 3d
       0.3737365 0.13570364 -0.092202224 0.083055414
000370 d5 10 06 be e1 5c b6 bd 9e cf d3 ba 3c 9d dd 3d
       -0.13092358 -0.08904434 -0.0016159897 0.10821006
000380 49 e3 a0 be 5b 34 67 3e 8f 90 7f 3e 5e 46 5e be
       -0.31423405 0.22578566 0.24957488 -0.2170653
000390 07 25 e0 3a b2 53 b4 bb 01 78 83 be 32 db 08 3e
       0.0017100879 -0.0055031413 -0.25677493 0.13364866
0003a0 a8 48 00 3e 07 36 64 be e0 b6 fe bb af 15 4d be
       0.12527716 -0.22286235 -0.0077732652 -0.20027803
0003b0 1f ac 27 3e 10 b4 91 be a5 76 71 3e c9 a8 cc 3d
       0.16374253 -0.2845769 0.23580416 0.09993131
0003c0 99 54 b4 3e a9 b0 83 be 15 e9 7c 3e 30 08 81 be
       0.35220793 -0.25720719 0.24698289 -0.2520156
0003d0 63 c0 31 3e 97 2d bf bc b9 f4 a8 bd 55 09 f4 3e
       0.17358546 -0.023337169 -0.08249802 0.4766337
0003e0 72 76 88 be 83 a6 b1 3c 4c 0a 5e 3e 89 16 ff be
       -0.26652867 0.021685844 0.21683615 -0.4982188
0003f0 27 fc 9b be 4a 70 ac 3d eb 12 91 bc 25 29 c6 3e
       -0.30465814 0.08419855 -0.017709216 0.38703266

output.bias f4 [10]
000000 ee a1 b6 bd 38 f8 1f 3e 23 ca c1 3d 61 d6 01 3d
       -0.089176044 0.15622032 0.09462383 0.03169859
000010 ca 98 b3 bd 48 63 f0 3d c5 6a 15 be 2c 8a 79 bd
       -0.087693766 0.117376864 -0.1459151 -0.060922787
000020 2c 0a 4b 3e e3 db ef 3d
       0.19828099 0.11711862
