models/mnist_lenet.pt (torch_old, 179343 bytes, 10 tensors)

C1.weight f4 [6, 1, 5, 5]
00000000: a461 183d fdae adbe 1b3d aabe 92df 9dbe
00000010: 76e4 82be 936e c6bc 58dd f8be 21f0 13bf
00000020: 0023 b4be 71d5 8fbe 82cb 69be 723c 363c
00000030: 96a9 9ebe 0eb6 0d3e 7f96 6d3e b5ef f83d
00000040: d850 b33d d3d1 c63e 2e15 d93e 1c91 933e
00000050: e595 453e 150a d23e f23e 8f3e a4a0 eb3e
00000060: be51 d83d 4b79 8abe 0e67 173e c7e9 b03e
00000070: 4f0d 103f 27cc f63e 7bff 3cbe b26a 383d
00000080: a91c 493f 68e8 2f3f 63ea 1e3f a26c 52be
00000090: 5dfd 3d3e 590c 1b3f 337a ae3e efb7 743e
000000a0: 2e8e c5be 06d9 4bbe 5263 41bb 1b8f c33d
000000b0: 4c34 483d 324a 9dbe 47ce 9ebe c55c 14be
000000c0: d455 81bd ba83 e4bc ff79 e63c 6d1a 10bd
000000d0: 0bd8 d5be af8b 15be b8fc d8be 9c2d 3ebe
000000e0: 0eb2 ebbc 341d 0fbe b146 7bbd 4154 ae3d
000000f0: 6960 673e 8958 f03e e262 ab3e 2c98 a63e
00000100: e3ca e63e 8bce 113e 2114 103f e830 313f
00000110: 4f97 ce3e 4b74 053f 7aef 40be f7d0 c4bc
00000120: bdae ae3e 8e75 803e abde 253e 6d5d fe3d
00000130: c9cf a33e c4af 29bd 85fe 45be 323e 3cbe
00000140: 12cb dc3e 7291 c23e 323c 12be 79b0 9cbe
00000150: de81 5fbe 2240 633d 5770 473e feb1 803c
00000160: d33f 8dbe c542 53bc ec22 173e 690b 793e
00000170: 3375 803c 334f 5bbe e5ed 1fbe d8db 553e
00000180: 4d58 a23d fda0 563d be65 013d 1fc6 853d
00000190: bd92 b03e 8659 4b3f f903 463f 821b 783e
000001a0: 6520 2ebe 0299 763f 567d a83f b025 653f
000001b0: c529 283f 665f 2abd f2f9 4e3f 5f29 793f
000001c0: 45ed f33e 7b6e 883e 5be8 79bd a739 093e
000001d0: 0b9e 0abe cc3a 3dbe 1538 f0be ee89 25be
000001e0: 0b20 babe faf7 18bf f530 e7be 0a7e 92bd
000001f0: 3eed 26bd 12fc 7e3d 3cbc 803e be67 373e
00000200: 9974 4f3e 0d65 ba3d 32a5 1bbc a9cf 753e
00000210: d219 913d b2c7 0f3e 98cf 9bbd 260b 833e
00000220: c55b 363e 9d2b b4bd 00c4 07be 40f9 6dbd
00000230: 805c 033b 5013 91be 9636 b7be 5dfa 9bbe
00000240: 524e 8ebe 4843 4dbe e857 97be 4186 5cbe
00000250: f405 45be 64ee 91be
0.037202492 -0.33922568 -0.33249745 -0.30834633 -0.25564927 -0.024222648 -0.48606372 -0.5778828
-0.35182953 -0.2809253 -0.22831538 0.01112281 -0.3098876 0.1383898 0.23201941 0.121550955
0.08755654 0.38831958 0.4239897 0.28821647 0.19295461 0.41023317 0.2797771 0.46020997
0.10562466 -0.27045664 0.14785406 0.34553358 0.5627031 0.4820263 -0.18456833 0.045023628
0.78559357 0.68714 0.62076396 -0.20549253 0.18553682 0.60565716 0.34077606 0.2389829
-0.38585037 -0.19907007 -0.0029508662 0.095487796 0.048878 -0.3072067 -0.31016752 -0.14488514
-0.063151985 -0.027894843 0.028134344 -0.03518145 -0.4176639 -0.14604066 -0.4238031 -0.18572086
-0.028771427 -0.13975984 -0.061346713 0.08512164 0.22595371 0.46942547 0.3347388 0.32537973
0.45076665 0.14238946 0.56280714 0.6921525 0.40349814 0.52130574 -0.18841353 -0.024025423
0.3411769 0.25089687 0.16198222 0.12420163 0.31994465 -0.04142739 -0.19335373 -0.183831
0.4312368 0.3800159 -0.14280775 -0.30603388 -0.21826884 0.055481084 0.19476448 0.015709873
-0.27587757 -0.012894337 0.14759415 0.24320759 0.015680885 -0.21416931 -0.15618093 0.20884645
0.07926998 0.052399624 0.03159117 0.06531929 0.34486952 0.79433477 0.7734981 0.24229243
-0.17004545 0.9632722 1.316325 0.8951063 0.65688735 -0.041594885 0.80850136 0.9732875
0.4764196 0.2664679 -0.061012607 0.13400899 -0.13536851 -0.1847946 -0.46917787 -0.16165897
-0.36352572 -0.5975338 -0.4515454 -0.07152946 -0.040753596 0.06225211 0.2514361 0.17910668
0.20259322 0.09101305 -0.009499835 0.24004997 0.07085003 0.14041021 -0.07607955 0.25594443
0.17808445 -0.08797381 -0.13258362 -0.05809903 0.0020044148 -0.28335047 -0.35783833 -0.3046445
-0.2779413 -0.20045197 -0.29559255 -0.21535589 -0.19240552 -0.2850219

C1.bias f4 [6]
00000000: 948a 923e 78b5 ca3b 2d0e be3c 2057 e8bd
00000010: 5ce2 5e3e 3087 f23e
0.28621352 0.0061861835 0.023200119 -0.11344743 0.21766037 0.47368765

C3.weight f4 [16, 6, 5, 5]
00000000: bc4c 96bc ddf5 88bd 29fd b3bd dad2 acbd
00000010: 1f96 edbc f372 863b 5462 8cbd 2ca3 c2bd
00000020: 7c78 3a3d deb8 47bc bdf3 bebd dfcf ccbd
00000030: 442c a63d fa37 3c3e 8bf8 103d a576 cf3d
00000040: f1f0 f23c 73d0 e13d f377 d53d 6d57 533c
00000050: 7f93 2e3d d2fb 713d a247 4b3d fdd9 cabd
00000060: ab5e 813a 9a42 623c 97a7 91bc 737f bdbd
00000070: cbd4 4e3d 10a8 82bb 822c 2ebd 5a0f 93bd
00000080: dcc9 0fbe ead8 fbbd 323d 0bbe 35f8 cebb
00000090: afd4 a4bd 2f98 4dbe 1a10 8dbd 9c6b a0bc
000000a0: 6736 4cbe 6934 47be 3d21 1dbd 176c 0d3e
000000b0: b882 6bbd 93f9 a2bc 8c45 b43d ce2c 2e3e
000000c0: 4149 a73d c6a8 8dbc d31c d23c 42c6 cdbd
000000d0: 7255 cfbd 8ddb c2bd 8a89 07be 0db4 b5bd
000000e0: 46f7 38be c9c9 27be 9839 33bd caae 93bd
000000f0: c627 8dbd 37d6 38be 32d1 403d 7684 063d
00000100: 482a 06bd 52e4 22be 552f f5bc 83f1 323d
00000110: 6b3a 813c 3003 80bd 4846 0b3d f9e4 b73d
00000120: c83c 1e3e b732 5c3d bd0f 803c aae0 823d
00000130: 00f5 923d 6d28 893d 6591 9dbd 499a 06bb
00000140: 6d5f 84bb 6869 86bb 6fae 78bd 5893 1ebd
00000150: 5b33 afbc 300f e6bb e4c0 9dbd cddb 233d
00000160: f479 fd3a 30dc b9bd 89a6 93bd e8d4 2f3d
00000170: 4c2c b8bd 8789 b63c 5592 4f3d aa98 95bd
00000180: e11b 91bd bbb2 403b 6c53 1d3c 46af a83d
00000190: f30f 7e3b 6c74 d33d 3133 213d 8df7 f1bd
000001a0: 5fb5 6ebd b947 d53c 1da4 c5bc 3b38 a93c
000001b0: b09c f2bd e6e8 18be a27f 8f3b 39d0 853b
000001c0: 277a 96be 57e7 7cbe 68f0 b03d ae60 7dbd
000001d0: a0ea 9abe 814e 1cbe 96b9 333e 6dbd 8d3e
000001e0: c222 3fbe 40fd 52be f309 e33d 2451 383e
000001f0: 436a c93c 58b3 c8bc 935e 543d f34e db3c
00000200: dee6 a93d 0d45 823d 1ca8 b8bc 65b8 b63c
00000210: dc57 5aba 336f b53c 5757 61bc 098c 0f3e
00000220: 655d c13d f354 363d b937 0fbd 8ef5 5e3d
00000230: 57b0 e3bb 414e 343d 0942 06bc e974 bd3d
00000240: c694 883d 32aa 983d 2837 ebbc ed74 9d3d
00000250: 270d 7a3c a9f9 fd3c f3f0 8abc 6842 0cbd
00000260: ab72 03be 3709 e8bd b55d c7bd bae0 74bd
00000270: 7d87 c5bd 7099 c2bc 5274 f03d 5eb9 94bc
00000280: 6273 bf3d 12a9 4e3e bdd9 1e3e b565 b53d
00000290: ba1d 26bd 4128 1cbe ab3f 7fbe 83f7 6cbe
000002a0: 12b6 c7bd e809 e0bc 60ac 6fbd 5d4c 6b3b
000002b0: 2407 0bbd 22b6 d3bb 6d92 81bd 5b13 61bb
000002c0: c29f 803c 1630 8b3b c59e d03d 18cb 25bd
000002d0: 5ad7 953d e0c8 fbbb 30cf 0cbe d1b3 23be
000002e0: 4517 c63c 862d 72bd 3cd5 a73c a4c8 033b
000002f0: 25bc 93bb c56c 99bd 5edc 043e 8153 893e
00000300: 981e 943e 3096 123d 0456 21bd 7e26 f3bd
00000310: ac08 b0be 8ff0 a7be 7814 a4bd ea6e 9c3d
00000320: b940 adbc 7c04 53bd 3b5f a3bc 498f 123c
00000330: 1aa3 533d e743 53bd 94cf d7bd 2a77 40be
00000340: 7d8e 93bc 1c8f 85bd 23c0 273e ae0a a53e
00000350: 2c1e c43e 68ca 3f3e 0daa 1f3c 9603 d8bd
00000360: 0610 1bbe d4c8 5ebd d754 86bc 57b4 313e
00000370: 4602 07be a0ed a3bc 72c7 50bd 5e4d a0bd
00000380: 0f26 2fbe 1d5e 93bd a8ee 003d 50e5 f33a
00000390: 9ec5 583c cb0a 653c 9afb 1c3d 2c56 bebd
000003a0: 5ef0 0cbd dc6c 10be d442 05bc db25 19bd
000003b0: fef1 20be 5644 55be adf1 32bd 1738 fc3b
000003c0: 5fc2 1bbe c048 60bd 2613 d2bc deaa 1cbd
000003d0: d915 61bc 249b 273d bf30 65bd a868 13be
000003e0: f369 a7bd 9810 0ebe 04de 98bc b24a 62bd
000003f0: b7b8 523e d0cc d13d fe38 8fbd fb3c 84bc
-0.018347137 -0.0668752 -0.08788521 -0.08438654 -0.029002247 0.0041030585 -0.06854692 -0.09503779
0.04552506 -0.012190072 -0.09323833 -0.10000586 0.08113912 0.18380728 0.03539328 0.101300515
0.029655905 0.11026087 0.10423269 0.012899262 0.042621132 0.059078045 0.04962886 -0.09904859
0.0009870132 0.013809824 -0.017780108 -0.09252825 0.050495904 -0.00398732 -0.042522915 -0.071806625
-0.14041847 -0.122972324 -0.13597563 -0.0063162097 -0.08048379 -0.20077585 -0.06887837 -0.019582562
-0.19942628 -0.19453587 -0.038361777 0.13810764 -0.05749771 -0.019894397 0.088023275 0.17009279
0.08168269 -0.017292392 0.02564851 -0.1004758 -0.10123719 -0.09514532 -0.1323606 -0.088722326
-0.18063077 -0.16385569 -0.043756098 -0.07211073 -0.06892352 -0.18050466 0.047074504 0.03284117
-0.032755166 -0.1590741 -0.029929796 0.043687355 0.015774926 -0.06250608 0.034002572 0.0897922
0.15452874 0.053759303 0.015632505 0.063905075 0.07175636 0.06697164 -0.076937474 -0.0020538738
-0.004039696 -0.004101921 -0.060713228 -0.038714737 -0.021386793 -0.0070208535 -0.077028066 0.04000454
0.0019338713 -0.090752006 -0.072094984 0.042927653 -0.08992824 0.022282375 0.050676662 -0.07304509
-0.070853956 0.0029403407 0.009602409 0.08236556 0.003876683 0.1032494 0.03935546 -0.11814795
-0.058278438 0.026035177 -0.024126107 0.020656696 -0.11846292 -0.14932594 0.0043792287 0.00408366
-0.2939007 -0.24697624 0.08639604 -0.06185978 -0.3025713 -0.15264322 0.17551264 0.27683583
-0.18665603 -0.2060442 0.11085882 0.17999703 0.024586802 -0.02449958 0.051848006 0.026771044
0.082959875 0.06360827 -0.022541098 0.022304723 -0.0008329132 0.02214775 -0.013753734 0.14018263
0.09441642 0.044514608 -0.03496525 0.054433398 -0.0069485116 0.04401994 -0.008194455 0.092508145
0.06669001 0.07454337 -0.028712824 0.076883174 0.015261925 0.031002836 -0.016960597 -0.034243017
-0.12836711 -0.113298826 -0.0973467 -0.05978463 -0.09644983 -0.023754805 0.11740936 -0.018154796
0.093481794 0.20181683 0.15512748 0.0885729 -0.040555693 -0.1524973 -0.24926631 -0.23141293
-0.09751524 -0.027348474 -0.058514 0.003590367 -0.033942357 -0.006460921 -0.063267566 -0.0034343812
0.015701178 0.0042476756 0.10186533 -0.04047689 0.07316466 -0.0076838583 -0.13750911 -0.15986563
0.024181018 -0.059125446 0.02048742 0.0020108605 -0.0045085126 -0.07491449 0.12974688 0.2682152
0.2892959 0.03578776 -0.03938867 -0.11872576 -0.34381616 -0.3280072 -0.080117166 0.07638343
-0.021149026 -0.05151795 -0.01994287 0.008945295 0.051669218 -0.05157843 -0.10537639 -0.18795457
-0.01801228 -0.065214366 0.16381888 0.3223471 0.3830427 0.18729556 0.009745133 -0.10547559
-0.15142831 -0.054390743 -0.016397877 0.1735395 -0.13184461 -0.02001077 -0.050971456 -0.078272566
-0.17104362 -0.07195685 0.0314776 0.0018607769 0.013230709 0.013979624 0.038325883 -0.0929378
-0.03440892 -0.14104027 -0.008133609 -0.037389617 -0.15717313 -0.2082685 -0.04368751 0.007697116
-0.15210865 -0.05475688 -0.025643896 -0.03824889 -0.013738119 0.040919438 -0.05595469 -0.14395392
-0.08174505 -0.13873518 -0.018660553 -0.055247016 0.20578276 0.10244143 -0.06993292 -0.016142359

C3.bias f4 [16]
00000000: baf9 d13c c5b5 afbd eb59 9fbd 7630 203c
00000010: 11c7 203e ea0a dabc a7d4 c03c 5d3f b9bd
00000020: 9125 d3bc 9985 053d b270 68bd c3b8 51bc
00000030: f817 6fbc d16b 143e b126 513e b1fe 68bb
0.025631774 -0.08579592 -0.07780822 0.009777179 0.15700938 -0.026616532 0.0235389 -0.09045289
-0.025774749 0.03259811 -0.0567481 -0.012800398 -0.014593117 0.14494254 0.20424916 -0.0035552199

F5.weight f4 [120, 256]
00000000: c0c2 d13d cdc4 153c ea5e 6c3b a93c fd3c
00000010: a097 733d e32a 913d ad24 63bd dab7 37bd
00000020: f7b6 a4bd 85df aebd fb9c eabb 4cef a93c
00000030: 7ecb f6bd 216d b8bd 16c2 4cbd f029 253d
00000040: 488e 22be 7435 59bd 16a6 37bd ceaf 2dbe
00000050: 69fc 683d ddc4 e3bc 29fd 80bd 4434 abbd
00000060: cde5 c43c 446e 1d3e 08df 6c3d f154 543d
00000070: 71cd ed3d 151b d73c 3279 90bd f6fe f43c
00000080: 3463 c83d fd19 9fbd 8d3a 0cbd a14a d1bd
00000090: 27db 3b3e 1e77 89bc 2d11 c23c 9c47 8d3d
000000a0: 7a33 0ebb 21ae f93c ca50 c63d 043e 6fbd
000000b0: 45a6 2fbd 8aea 8b3c d4bc c0bd 98a7 73bb
000000c0: c980 e73c 6d4b 723d 867b bf3c 242b 29bc
000000d0: 22bb ddbb e3eb 19bd c5f5 1b3d 2652 75bd
000000e0: 5273 acbc 73da 35bd e7fe 39bd 9110 68bb
000000f0: 07cc 8ebc 9a51 903d 0ee9 b9bc 0dd0 84bd
00000100: 86ed cf3d 44ee b03d 1e2e 89bc 9348 d33c
00000110: dd2b fc3c 0290 cc3a 4fb0 883d f1db ba3c
00000120: 9a79 833d 6f98 7ebd e264 1abd ba7a 3bbb
00000130: ed0c 103d c47d fcbd cd11 083c b198 6ebd
00000140: 8b87 4a3c 417e 963d 7fe5 17bd e812 0c3d
00000150: 96b4 76bc dce0 a5bc 9b62 993c 953c 0fbc
00000160: efb7 4d3c f583 24bd 2791 543d 10da 84bd
00000170: d537 3f3d 0f02 bdbc 8006 233d d695 11bd
00000180: b112 9a3d 98c7 6cbd 55f5 e23d 3091 cc3d
00000190: b29c 0d3e 4b1f cfbd 5ecd ba3d b38d 013e
000001a0: 660d 293d e878 4cbd 132c 753a 4bd0 6bbc
000001b0: 10f9 c23d ccdc 3e3d ded5 b3bd 055f a33c
000001c0: e35d 63bd 06ae a93a eb19 843c 93ff 69bd
000001d0: 5f06 7abc b427 f23d bdfa f1bd 44f2 dbbd
000001e0: 8551 7dbd caa7 9f3d 19e4 533d 12c8 283d
000001f0: 9d77 b63c 7296 d73b ee39 fabd bbcf d43c
00000200: 1def 053a ae4c c83c 4f08 1d3c 1690 333d
00000210: c220 42be 855c 4dbe ea81 edbc 0552 5abd
00000220: 2100 46bd 8b5c 13be 4797 a03c 50f5 df3d
00000230: 7e04 083e 9094 a53c 67f4 e53b 16f1 1f3e
00000240: a9da 90bd 2179 383d 0b84 40bc d22c 2bbc
00000250: bade 0ebe 79d4 0d3d af9c f13d ffee 2f3d
00000260: 59fb 66bd 2cac 69bd 9414 253d 619d 9a3d
00000270: dca2 92bc af6d b3bd f75d ab3d 1d66 873d
00000280: a4cc 4bbd 4b69 fc3c a648 033d 2a82 9c3d
00000290: a207 933d 92f4 873d 9621 533d adbb af3c
000002a0: d35f cabc 2005 e13c f57a b73c c07c 733b
000002b0: 1ce1 e9bc 549b 99bd 9f17 d1bc 7b46 173d
000002c0: b24b dc3d 321c a93d f223 88bd 54d7 1abd
000002d0: 9b2c ccbd b96e a43d 60ec 6abd aaee eabc
000002e0: 270e 98bd a4a7 b13c b28e dfbb 5cb9 353d
000002f0: 60c6 b0bd 3496 a43c 7b51 a4bd 360d b93a
00000300: d599 7b3d 2acc c63c b07b 023d dc11 a13d
00000310: 1f9e a7bc 70a0 bd3d bd30 d73d f060 debc
00000320: 454b 293e 193b 333d c415 1cbe 1f96 1a3e
00000330: 2f43 d53c b377 d8bd 784c db3b 18f2 373c
00000340: 9564 ad3b e2d1 013c 5d41 42bd 2882 bebc
00000350: dba4 98be c627 13bd 56b8 f6bc 3b19 59be
00000360: c938 fdbd 6fdb 853c a4aa ff3c 28d3 e6bc
00000370: ec3a 9a3d 5cfe 063e 2ba5 34bd 3326 0a3d
00000380: 9a80 183e ae15 15bc 3e0c 2b3c 2ab7 08bd
00000390: 29dc bfbc d85e c53d 522f a23d 434b 88bd
000003a0: 1f8d 45bd 768f 89bd a9bd c5bd 113a 55bd
000003b0: 28a4 233d 4790 eb3a 9789 a5bd 6e22 aa3c
000003c0: f8c4 6cbe 809b 28bd b460 833d 9c55 d6bc
000003d0: 3e79 edbc 1c4b 39be 2292 d83d efaa 223d
000003e0: 58f0 e03d bad0 37bc 530d 213d 8d07 133e
000003f0: 59e8 8a3d 4ca5 7c3d 3cf4 b7bc 6383 323d
0.10242224 0.009141159 0.0036067315 0.030912714 0.059470773 0.07088258 -0.0554549 -0.04485307
-0.0804271 -0.08538727 -0.007159827 0.020743988 -0.12050532 -0.0900519 -0.049989782 0.040323198
-0.15874588 -0.053029492 -0.044836126 -0.16961595 0.056881342 -0.027803833 -0.062982865 -0.08359578
0.024035359 0.15374094 0.057829887 0.05183882 0.116114505 0.02625803 -0.07054366 0.029906731
0.097845465 -0.07768629 -0.034235526 -0.102193125 0.18345319 -0.016780432 0.02368983 0.06898424
-0.0021698163 0.030478539 0.09683378 -0.058408752 -0.042883176 0.01707961 -0.09411016 -0.003717875
0.028259652 0.059153963 0.02337433 -0.010325227 -0.0067666927 -0.037578475 0.03807618 -0.059892796
-0.021051083 -0.044397783 -0.04540911 -0.0035410265 -0.017431272 0.07046814 -0.022694137 -0.06484995
0.10152726 0.086391956 -0.016745623 0.025791442 0.030782634 0.0015606883 0.06674253 0.022809954
0.06419678 -0.06215709 -0.037693866 -0.0028607086 0.035168577 -0.123286754 0.008305025 -0.058251087
0.0123614175 0.073483 -0.0370841 0.034197718 -0.0150577035 -0.020248823 0.018723777 -0.008742471
0.01255606 -0.040164907 0.05189624 -0.064869046 0.046684105 -0.02307227 0.03980112 -0.035543285
0.07523096 -0.057807535 0.110819496 0.0998863 0.13829306 -0.101133905 0.09121202 0.1265171
0.041272543 -0.049919993 0.0009352576 -0.014392923 0.09520161 0.046597287 -0.08781026 0.01994277
-0.05550946 0.001294554 0.01612564 -0.0571285 -0.015260308 0.11823979 -0.11815403 -0.10739568
-0.06184532 0.07795675 0.051731203 0.041206427 0.022273833 0.006579214 -0.122180805 0.02597796
0.0005109178 0.024450626 0.0095845 0.043838583 -0.18957809 -0.20054825 -0.028992612 -0.053300876
-0.048339967 -0.14390771 0.019603385 0.109354615 0.13282964 0.020212442 0.0070176604 0.1561931
-0.07072956 0.045037393 -0.0117502315 -0.010447698 -0.13952151 0.034626458 0.11797463 0.042952534
-0.056392048 -0.05704896 0.040302828 0.07549549 -0.017899923 -0.08761155 0.08367532 0.066112734
-0.049755707 0.030811926 0.032051705 0.07642014 0.0717919 0.06638445 0.051545702 0.021451795
-0.024703896 0.027468264 0.022397498 0.0037153214 -0.028549723 -0.075003296 -0.025523959 0.03693245
0.10756625 0.08257331 -0.06647481 -0.03780301 -0.09969445 0.08028931 -0.05735433 -0.028678257
-0.07424574 0.021686383 -0.0068224305 0.044366226 -0.08631587 0.020091154 -0.08023354 0.0014118317
0.061426003 0.024267275 0.03185624 0.078647345 -0.02046114 0.09259117 0.10507343 -0.027145833
0.1653262 0.04375753 -0.15242678 0.15096329 0.026033012 -0.10569706 0.0066924654 0.011227153
0.0052915313 0.007923575 -0.047425617 -0.023255423 -0.29813275 -0.035926603 -0.030117195 -0.21201031
-0.123643465 0.016339986 0.031209297 -0.028176859 0.0753077 0.13182968 -0.04410283 0.033727836
0.14892808 -0.009099407 0.0104399305 -0.033377804 -0.02342041 0.09637231 0.07919182 -0.0665498
-0.048230287 -0.06716816 -0.096553154 -0.05205733 0.039951473 0.0017972075 -0.08082884 0.02076837
-0.23122013 -0.04116392 0.06414929 -0.026163869 -0.028988477 -0.18095058 0.105747476 0.039713796
0.10983342 -0.011219198 0.039319348 0.14358349 0.06782598 0.061681077 -0.022455327 0.04358233

F5.bias f4 [120]
00000000: 2a8d a53d 94c4 cfbb 6d96 cc3d d995 0b3d
00000010: f741 6bbd 5377 4fbd 631a 98bd 4090 043d
00000020: cc29 5abd 41f3 c9bc bbf3 46bd 681c bc3d
00000030: 3cbb 72bd bc30 d73d eecf 99bc 3298 873c
00000040: 0b64 3f3d 2168 0e3d 7081 6e3d c0d2 7b3d
00000050: d2b1 543c 3794 813d ab77 073d b141 7ebd
00000060: aa4d 1cbd 5edb 40ba 5664 9bbd 797a 62bc
00000070: c13b fcbc fb60 d4ba 6f50 c33d 008f 4d3d
00000080: 2d58 49bd 497a 293e febc 6a3c 4b4c 233d
00000090: 87c5 27bd e978 803c 5125 38bd 2368 1dbd
000000a0: 23fb 06bd 5ae3 9ebd c056 61bd fcf8 0e3e
000000b0: fe17 863c b31d f03c 615f 9abc e68b b93d
000000c0: f8cf babd cce8 893d e847 93bd 9701 42bd
000000d0: d38f bf3d 40fd 44bd 35e7 053c 898e 27bd
000000e0: a875 a1bc 287f 803d 8cae 123d 6dfa c93d
000000f0: c52f 2cbd deb4 af3c 8fea 8c3d a174 10bc
00000100: cf77 57bc 82b6 86bc ff41 f1bb c5f3 e83d
00000110: de01 743d 13d4 19bc 1aeb 26bd f68e c5bc
00000120: f581 8d3d 5729 783d 9136 6cbd b116 0ebd
00000130: 0438 f83b b825 8dbc 9675 c5bc 0094 fb3c
00000140: bccd 523b a06d e13d 2fca bdbc d27e 0dbb
00000150: bf5c 2bbd 6027 0abc a335 3d3c 22f2 3f3d
00000160: 4018 c83d a659 bc3c 4883 9ebd b88d 853d
00000170: 6a51 833d c23d b83c 774f b33c 2dfd 75bd
00000180: b316 363d 2e5f d2bc c06f 863d 4eed 753d
00000190: 8ded 21bd e2e0 2fbd 0737 ab3b 3e3e 0fbc
000001a0: 54ce e239 c419 943c 31d0 c83c a94d 02bd
000001b0: e0bf 5dbd a952 b73b 5000 bb3d 7a31 0a3c
000001c0: 3dea f13c 2b0d c2ba 4a19 8b3c 8095 cc3b
000001d0: 6f49 d7bc cc8f d23a 1717 f0bc 98c0 d2bc
0.080835655 -0.0063405726 0.09989629 0.034078453 -0.057435956 -0.050650906 -0.07426908 0.03236413
-0.053262517 -0.024652125 -0.048572283 0.091851056 -0.059260592 0.10507342 -0.018775906 0.016552065
0.046726268 0.034767274 0.05822891 0.061480284 0.012981849 0.06327098 0.03307311 -0.062074367
-0.038160004 -0.0007356907 -0.07587497 -0.013823145 -0.030790212 -0.0016203219 0.09536826 0.050185204
-0.049156357 0.16550554 0.014327286 0.03986768 -0.04095986 0.015682654 -0.044957463 -0.03842939
-0.032954346 -0.077582076 -0.055014372 0.13962168 0.016368862 0.029311037 -0.018844308 0.09059887
-0.09121698 0.067338556 -0.071914494 -0.047364797 0.09353604 -0.04809308 0.0081728 -0.040907416
-0.019709423 0.06274253 0.035810992 0.09862218 -0.042037744 0.021448549 0.06880676 -0.008816869
-0.013151123 -0.016444448 -0.0073626037 0.1137462 0.059572093 -0.009388941 -0.040751554 -0.02411602
0.06909553 0.0605863 -0.057669226 -0.03468961 0.007575037 -0.0172299 -0.02410392 0.03071022
0.0032166084 0.110072374 -0.023167698 -0.0021590483 -0.041836496 -0.008432239 0.0115484325 0.046861775
0.0977025 0.022991966 -0.07739884 0.06521171 0.06412013 0.022490386 0.021888478 -0.0600559
0.04445524 -0.02568015 0.06564283 0.060040765 -0.039533187 -0.042939074 0.0052250656 -0.008742867
0.00043259806 0.018078692 0.024513336 -0.031812344 -0.054138064 0.0055945707 0.09130919 0.008434648
0.029530639 -0.001480495 0.016979832 0.0062434077 -0.026280133 0.0016064583 -0.029307885 -0.025726601

F6.weight f4 [84, 120]
00000000: 8b29 093e 79b9 093c 0e35 0ebc 0d35 763c
00000010: eea5 b23d 2e59 4ebd 7438 79bd 59d5 4d3d
00000020: 3f12 153b 89a6 a7bd 9206 9bbc c614 3cbd
00000030: aa4d 983c 028a 28bd 4b64 393d 3f64 94bd
00000040: fe06 7b3d 3db4 7a3d d49f 14bd c35c a23d
00000050: 3be6 3abd 9fdd acbd 403a 11bd 274c 723d
00000060: 544e 83bc 1a9a 083e 7c59 f2bc 50db fa3c
00000070: 7d1f 123d 8463 a93d 20f3 86bd d725 acbd
00000080: 9117 02bc ed73 74bd 2da6 b83d 2807 4bbd
00000090: 8bb3 a43d 7387 b5bd 382f 1fbd 8af1 5d3d
000000a0: e6b6 a43a 75b9 83bd f23a 993d 2e0d 40bd
000000b0: 0058 89bb 04f8 ce3d 1d04 e83c 545b b2bd
000000c0: 007a 703d 94a9 763d a96b 11bd 1f87 abbd
000000d0: 4ecc 85bd f46c 5e3d c265 43bd 4b5d 653d
000000e0: cd39 37bd 2832 0e3d 9dda a03d 4e03 dc3c
000000f0: 9e25 2a3d 0fe3 fbbc dcd1 a2bd ca92 883d
00000100: 7ec6 b73d 97c1 acbd 19fc 91bd 0ef7 bbbd
00000110: 7dd2 9cbc 6ddb 23bd 706e c0bd adda cb3c
00000120: f68b 233d cdb4 3abd a90e ab3d 9798 17bd
00000130: a5fb 5dbd 7dd0 c4bd 06b6 ab3d 7f23 463c
00000140: b2c1 c43c 336b 2f3c caa6 383d c2ea dbbd
00000150: 6c4a 9e3d 9ee4 2d3c d613 9c3c f400 88bb
00000160: dabc a6bd 08f2 29bd 4c99 483d fd34 84bc
00000170: b8bb b8bd c361 1bbc e10a e2bd 5dd7 56bd
00000180: a392 3bbd 2d74 6f3d 74be 9cbd 6805 11bc
00000190: 03d8 bd3d e584 3d3d 029a c93d fd12 bfbd
000001a0: 3cf6 a839 e2dc aa3c 905e b73b 5d17 c23b
000001b0: 6460 3e3d d4e3 91bc d6a3 52bd 21f7 823d
000001c0: 9588 18bd 7edc 23bd 1cde 4bbc 6f9f 69bd
000001d0: 1014 893c a3e5 bebd 1d4a c23c 4635 603c
000001e0: c1dc ec3c 164b e23d b152 5ebb 1a8b b03d
000001f0: 1235 fa3c e373 f8bb 1d09 183d 16f1 573d
00000200: 10c2 7a3d fe92 39bd b899 c3bc 1eed e8bd
00000210: 218f 8f3d 6174 b23c 4ed3 6cbd 081c 77bc
00000220: 36f2 adbb 1d7c a2bd 1cd4 b1bc 8f6d 81bd
00000230: 520b d53d 4539 78bd c622 70bc ba4a ac3b
00000240: 1d9d 78bd e59d 9dbd 7f8f 1bbc f10a 5b3d
00000250: 3877 0fbd 9722 263c 761d e43c 910a 083d
00000260: 67fa 7abc 16fe 643b a08f 1bbd 3964 323d
00000270: 0624 babd e124 4bbd 0a5c 43bd 1afa fabc
00000280: 75e7 9ebd 84bc 003d 03d9 a53d 4e1c bc3d
00000290: a38b 4e3d 6f0c f33c 3b4e 80bd 45dc a83c
000002a0: b260 b0bd f947 94bd 6f96 703b 746e a33d
000002b0: 8b65 b9bd 5f3d aa3d babf 7dbc 5d99 2e3d
000002c0: 13c7 333d a4b9 b63d 36ce 75bd c926 95bc
000002d0: c704 353d d473 6e3d c09e 6c3d a431 94bd
000002e0: 4aef ae3d 1d4c afbd 5b18 813c e253 8b3d
000002f0: aa40 5ebd 6a32 3e3d efc5 ac3d 5e1f 223d
00000300: ce42 c0bd eada a1bd 8d5a ad3d 6abc 78bd
00000310: 36db a13d 2f11 873d 9ff7 b3bc af55 a3bc
00000320: f0e5 b63d 89e9 4cbd f2d3 88bd 6f01 b839
00000330: 037a fd3c 0259 aabd fcd0 03bd 795d a13c
00000340: 7f62 6d3c 970f adbd c4b8 a2bd 6f42 a2bd
00000350: bd01 50ba f051 8f3d 7d93 80bd f04a 22bd
00000360: 05c7 c6bc 3642 03bd dd00 593d 9d5a d93d
00000370: 16bb 7f3d f53c 5cbd 5aa3 96bb 69af 953c
00000380: 64e3 f93c d54c 8abd 43c7 98bd 1535 59bd
00000390: 0307 373d 37cd 60bc b535 c2bc a84c cfbd
000003a0: 499c 033b ae06 91bd 5903 b13c ee1b 0a3d
000003b0: 17ca 9cbd 21e1 debb 9fa5 9039 358c 723d
000003c0: bea3 e9bd abe0 cd3d 69cb d23d 0ebc c43d
000003d0: 58bf 8dbd b726 a23d 156d babd a854 1eba
000003e0: 158b 593d 57a8 babd 9425 50bd ab5d 433d
000003f0: 34af 3dbc 1c26 4b3e 0e0d ddbb b152 86bc
0.13394754 0.0084060365 -0.008679641 0.015027297 0.08723055 -0.050378017 -0.060844854 0.050252292
0.0022746471 -0.08186061 -0.018924031 -0.04591825 0.01859172 -0.04114724 0.045261662 -0.07245683
0.061285965 0.061207045 -0.036285236 0.07927849 -0.04562972 -0.08440708 -0.035455942 0.059154656
-0.01602856 0.13340035 -0.029583685 0.030622154 0.03567456 0.08270934 -0.06589341 -0.08405655
-0.007940189 -0.059680868 0.090160705 -0.04956737 0.080420576 -0.088637255 -0.03886339 0.054185428
0.0012566715 -0.064318575 0.07481946 -0.04688757 -0.0041913986 0.10105899 0.028322274 -0.08708826
0.0587101 0.060220316 -0.035503063 -0.08375382 -0.06533109 0.054303125 -0.047704466 0.055997174
-0.044732857 0.0347158 0.07854197 0.026857045 0.04153978 -0.030747918 -0.07950184 0.06668623
0.08973406 -0.08435362 -0.07128162 -0.09177981 -0.019143337 -0.040004183 -0.09396064 0.024884546
0.0399284 -0.04558258 0.083524056 -0.037010755 -0.054195065 -0.096100785 0.083843276 0.012093424
0.024018142 0.010706711 0.045080937 -0.10738136 0.077290386 0.010613589 0.019052427 -0.0041505042
-0.08141489 -0.041490585 0.04897432 -0.016138548 -0.090201795 -0.009483757 -0.11037231 -0.05245148
-0.04579414 0.058460403 -0.076535136 -0.008851387 0.092697166 0.046269316 0.09843828 -0.093297936
0.00032226916 0.020857278 0.0055959895 0.0059231953 0.046478644 -0.017808832 -0.051425777 0.06394792
-0.03723963 -0.0400052 -0.012443092 -0.057036813 0.0167332 -0.093211435 0.02371698 0.013684576
0.028913857 0.11049478 -0.00339238 0.086202815 0.030542884 -0.007582174 0.037118066 0.05272015
0.06122023 -0.0453062 -0.02387701 -0.113733515 0.070097215 0.02178401 -0.057818703 -0.015082367
-0.005308415 -0.07933829 -0.021707587 -0.06319725 0.1040255 -0.06060149 -0.014656728 0.0052579315
-0.06069671 -0.076961316 -0.009494661 0.05347723 -0.035025805 0.010140083 0.02784608 0.033213202
-0.01531849 0.0034941486 -0.03797877 0.04355261 -0.09088902 -0.049595717 -0.047695197 -0.030636836
-0.07758991 0.031429783 0.08098032 0.09185086 0.050426137 0.029669015 -0.06264921 0.020612845
-0.08612193 -0.0724029 0.003671076 0.07980052 -0.09052571 0.08312487 -0.015487606 0.042626727
0.043891024 0.08922127 -0.06001111 -0.01820697 0.04419401 0.05821593 0.057768583 -0.07236031
0.085417345 -0.08559439 0.015758684 0.06803109 -0.054260887 0.046434797 0.0843619 0.039580695
-0.09387742 -0.07903083 0.08464537 -0.06072656 0.07903139 0.065950744 -0.02196866 -0.019938318
0.08930576 -0.050027404 -0.0668105 0.00035096283 0.030941969 -0.08317758 -0.032181725 0.019697892
0.014488815 -0.08450239 -0.079453975 -0.079228275 -0.00079348293 0.0699805 -0.06278131 -0.039622247
-0.024264822 -0.032045566 0.05297934 0.10612986 0.06243428 -0.05376907 -0.0045971097 0.018272119
0.030503936 -0.06752936 -0.07459881 -0.05302914 0.04468442 -0.013720802 -0.02370725 -0.10122043
0.0020082167 -0.07081352 0.021608042 0.033718042 -0.07655733 -0.00680174 0.00027589218 0.059215743
-0.114081845 0.10052618 0.10292704 0.09606181 -0.069212615 0.079175405 -0.09102837 -0.00060398364
0.053111155 -0.091141395 -0.050817087 0.04769675 -0.011577416 0.19838756 -0.006745941 -0.016396852

F6.bias f4 [84]
00000000: 1d4d a2bc d57c bcbd 31e4 013e 16ed dc3d
00000010: f40e 26bd c01b adbd 4806 93bd 90f8 a43d
00000020: 7f15 30bd eaa0 9bbd 772d 043e bf9e a93d
00000030: 3fcd c33d e035 aa3d 516f a1bd af3e 1e3d
00000040: dfaa 4ebd 3131 34bb 2e02 373d 5308 9abc
00000050: b1fe 993d 4f7f fdbb e99f fcbc e05c be3d
00000060: e90b cc3d 64c0 86bd 5f66 633e 8694 90bd
00000070: 4e51 c3bd ca56 083d 061b 86bc 18d0 d83a
00000080: b965 983d 2b6c 0dbd f021 91bc b570 913d
00000090: 2fbf debd 158f b0bd f2a1 aa3c 790f c4bc
000000a0: 6862 54bd 297d 08be 67d3 d13d a8d5 a6bb
000000b0: c434 2b3d ccab 5dbc cad4 67bd 239b c13d
000000c0: 34c5 303e 69e2 52bd ad73 72bd 4302 e73d
000000d0: a4d9 543e b6b2 b53d d055 b6b8 0c4e 78bc
000000e0: 21e9 ef3c f43b ff3c 0d4c 1b3d 14fe 93bd
000000f0: 0a08 3c3e 3d44 59bc a199 bbbd 6ed6 ad3d
00000100: 3636 123e 3840 883d d1b7 85bd 395f 4f3b
00000110: 483f 0bb9 63de 263e 1556 973d 686e a4bd
00000120: c888 893c 25ed 7fbc b0fe 8f3d 3068 bd3c
00000130: 5717 b8bc a6b6 1a3e ac77 663d a9d6 123d
00000140: bfc0 a33c 5c92 053e 85bf d63d 4341 abbd
-0.019812161 -0.09203497 0.12684704 0.10787408 -0.040541604 -0.084525585 -0.071789324 0.08055222
-0.04298925 -0.07599051 0.12907968 0.082822315 0.09560632 0.08311057 -0.0788256 0.038634
-0.050455924 -0.002749514 0.044679813 -0.018802797 0.07519282 -0.0077361236 -0.03083797 0.09295058
0.09963209 -0.06579664 0.2220702 -0.070595786 -0.09536992 0.033285893 -0.016370308 0.0016541509
0.07441277 -0.034526985 -0.017716378 0.07101575 -0.10876309 -0.08621041 0.020829175 -0.02393316
-0.05185166 -0.13328995 0.102454 -0.005091388 0.041798368 -0.013529729 -0.056599416 0.09453418
0.17262727 -0.051485453 -0.05919235 0.11279728 0.20786148 0.08871977 -8.69442e-05 -0.015155327
0.02928597 0.031156518 0.037914325 -0.07226196 0.18362442 -0.013260898 -0.09160162 0.08488165
0.14278492 0.06652874 -0.06529201 0.003164245 -0.00013279647 0.16295771 0.07389466 -0.08028871
0.016788855 -0.0156205045 0.07031 0.02312097 -0.022472067 0.15108737 0.05626647 0.035849247
0.01998937 0.13044113 0.10485748 -0.08362057

output.weight f4 [10, 84]
00000000: 1e52 fabd 2998 023d b4e1 25be 5a20 e63d
00000010: 5d6e a8bc ce3f aebc 0092 b73d 5272 843d
00000020: 8571 28be 5bc7 c23d ac19 18be afa7 d93e
00000030: 4d7a 3f3e 57c2 f13d bf0b f4bd a1be c2bd
00000040: db27 d3bd 2a3d 22be b523 3fbe aab4 223d
00000050: 5634 9e3c 484b 54be 2398 cfbc c7df 613e
00000060: e450 31bd 3f15 6a3e 3366 d9be 0890 203d
00000070: b2a4 5e3d f29b 04be b143 fa3d 5262 34bd
00000080: aa37 1fbd f09e bcbd b435 463d 47b7 5b3b
00000090: 68f2 e33d 5943 1cbd d0f4 6a3e 8feb ad3d
000000a0: e9fa 863e 487c 87bd 8e4f bcbe a7d7 2cbb
000000b0: f011 2bbe f649 95be 065e 6a3e 310b 79bd
000000c0: 1cc4 5ebe 871d 7d3c b1d5 88be a97d debd
000000d0: d571 05bf 55bf b9bd d203 f7bb c5aa 9d3c
000000e0: 64cb eabd dedb 8c3d c98c 623c ac13 a83e
000000f0: f5bf 97be e95c 1cbc 3f11 d73d d5c0 90bd
00000100: 4386 943e a03e 63bd 5adc 96bc dc35 debd
00000110: 987f 913e 31c9 57be f1ce 643e c113 4cbe
00000120: 20e3 583e cb6e 2fbe 98a4 853e 58d1 c2be
00000130: 1cf9 c7bd 8627 893e e1cb 97be 41ef 873e
00000140: cc81 12be d309 a2be 97dc 5bbe 7425 503e
00000150: 2b7d a73d 1c7d 023e 2b4e 033f 2eac 863e
00000160: 5ff3 b5bd 6598 8cbc f49f 123e a475 bdbe
00000170: c640 05bd 6e06 903c 1f60 e0bd 4e5b 99be
00000180: a7b3 02bc f1f5 393d 9c11 aebc 219d 28be
00000190: 8b91 423d 3294 f43d 23c0 8a3e 1916 c03d
000001a0: b9b3 bc3d 5fd5 e93d 578b af3c 477e d83e
000001b0: cfe8 e4bd c57a f2bc c418 3b3d 04f3 203e
000001c0: b389 9dbe ef28 d3bc c68d 59bc b30e 23be
000001d0: e783 34bd 2404 f13b 5b01 59bd 4d54 4bbe
000001e0: 11ad 0a3e d26b b73d 3bfc c7be 9500 28bd
000001f0: f8dd 24be 9c50 193e 06a4 1fbe 8cb7 90bd
00000200: 5fe3 82bd 5e52 a23e 2190 423d ae77 8b3d
00000210: f131 a9be 489e 243d b2b0 833d 27ac 183e
00000220: be0d 803e 8857 a4bd 27ad bc3e 9d0e d63d
00000230: 3523 15be 2b3f b3be 4c6c 76be c99f 653d
00000240: 2777 75be a6bc 7d3d 67ac 733d dfb1 3dbe
00000250: ced5 97be 2af1 703e 8de7 a13d c546 0fbe
00000260: 554a 02bd 9d61 bfbd 4be9 9dbe 1830 533b
00000270: 342e 98bd 0009 cd3e 35ad bb3d 6f78 3d3d
00000280: c011 d3bd c298 c4be d8c1 38bd bdc6 833d
00000290: c8a2 e63e 5f49 04be e659 423e 8d37 03bd
000002a0: 6810 d9bd 938e cabc 7ef4 ba3e 6a3f 783e
000002b0: 9074 583d 6542 ee3c d30a 903d 200b adbe
000002c0: 50c7 a33e f903 6c3e 6a39 87be af2f 813d
000002d0: 7430 c4bc c8ed 86bd fd7b dcbd d146 013e
000002e0: 11a2 8b3e 8fd1 4dbe b6fe 04be 0830 35be
000002f0: 2c1a e13d 7ed3 f13d 798d 2c3c 7ecf cabe
00000300: 29d7 7d3d eadf 04be 708a 3ebe 824f 643e
00000310: ae62 a63d 5890 9cbe e2bc 52bd 5752 13bc
00000320: 03b7 7a3e 0171 ca3d f473 1e3e 3b9a f8bd
00000330: fc4a b9bc f61a 2f3d d890 333e 7fc9 303d
00000340: f668 f53d d515 7c3d c2ea d2be fe25 98bd
00000350: c223 893e f1fe fabb a340 44bd cf23 8abd
00000360: dae3 503c 2f1a 123c e0a2 b23c cbcd 71bb
00000370: 77a1 9b3e f17a cd3c ddcf 72be c6c3 aa3d
00000380: 1121 753e 67da af3e a3a8 ba3e 65ba 8ebe
00000390: 32af 9fbe 169a fa3b 3c78 34bd 6f6b a5bd
000003a0: 8e30 05be 4a32 97be c261 a6bd 79df 0fbc
000003b0: 368e 993e 1a5b bdbd 0e0c a73d e97e 8d3d
000003c0: c470 0f3e 7772 693e fb87 453d d218 a8be
000003d0: fa8a 813d 532b 92be cd20 603e 624c 983e
000003e0: 0737 07be 3921 023e 9378 15be 8e28 9f3d
000003f0: 64b9 b83d 8ecd 193d 174f cdbe 70b7 913c
-0.12222694 0.031883392 -0.1619938 0.11236639 -0.020560438 -0.021270659 0.08963394 0.06467117
-0.16449554 0.0951068 -0.14853543 0.42510745 0.18698998 0.118046455 -0.11916303 -0.09509016
-0.10310336 -0.15843645 -0.18665965 0.039723076 0.019312065 -0.20731843 -0.0253411 0.2205802
-0.043290034 0.22859667 -0.42460784 0.03919986 0.054356284 -0.12950113 0.12219942 -0.044039078
-0.038871445 -0.092100024 0.04839106 0.003352599 0.1113022 -0.038150165 0.22944951 0.08492195
0.26363304 -0.06615502 -0.36779445 -0.0026373656 -0.16706061 -0.2915799 0.2288743 -0.06080169
-0.21754497 0.015448934 -0.26725534 -0.108638115 -0.5212682 -0.09069697 -0.007538297 0.019246468
-0.11464575 0.06877874 0.013827511 0.32827508 -0.2963864 -0.009543636 0.10501336 -0.0706803
0.29008684 -0.055479646 -0.018415619 -0.108501166 0.2841766 -0.21072842 0.22344567 -0.1992941
0.21180391 -0.17132108 0.26102138 -0.38050342 -0.09764311 0.26787966 -0.29647735 0.26549724
-0.14307326 -0.3164812 -0.21470867 0.20326787 0.08178171 0.12743038 0.5129115 0.26303238
-0.0888431 -0.017162511 0.1431883 -0.37003815 -0.032532476 0.01758119 -0.10955834 -0.29952472
-0.007977403 0.045400564 -0.021248631 -0.1646619 0.04750208 0.119423285 0.27099714 0.09379215
0.09213967 0.114176504 0.021428747 0.42283842 -0.11177217 -0.029599557 0.045677915 0.15717703
-0.3076912 -0.025776355 -0.01327843 -0.15923576 -0.044071104 0.00735523 -0.05297981 -0.19856377
0.13542582 0.08956112 -0.39059624 -0.04101618 -0.161003 0.14972156 -0.15589914 -0.07066259
-0.06391024 0.31703466 0.047500733 0.068099365 -0.33045915 0.04019001 0.06430186 0.14909421
0.25010484 -0.08024508 0.36850855 0.10452006 -0.14564212 -0.3500913 -0.2406475 0.056060586
-0.23971234 0.061947487 0.059490588 -0.18524884 -0.29655308 0.23529497 0.07905493 -0.1399184
-0.03180917 -0.0934479 -0.3084205 0.003222471 -0.074306875 0.4004593 0.09163896 0.046257433
-0.1030612 -0.38397795 -0.04510674 0.06434391 0.45046067 -0.12918614 0.18979606 -0.0320354
-0.10598832 -0.024726188 0.36514658 0.2424294 0.052845538 0.029084394 0.070333146 -0.3379755
0.31988 0.2304839 -0.2641099 0.06307923 -0.023948886 -0.06588322 -0.107658364 0.1262467
0.27272084 -0.20099472 -0.1298779 -0.17694104 0.1099132 0.11807917 0.010531777 -0.3961143
0.06197277 -0.12976041 -0.18607497 0.22295955 0.081242904 -0.30578876 -0.051449664 -0.008991799
0.24483876 0.09884835 0.1547392 -0.12138792 -0.022618763 0.04275032 0.17535722 0.04316091
0.1198291 0.06154426 -0.4119473 -0.074291214 0.26785094 -0.007659786 -0.047913205 -0.06745111
0.012749637 0.0089173755 0.02180618 -0.0036896344 0.30396625 0.025083037 -0.23712106 0.08338122
0.23938395 0.34346315 0.36456785 -0.27876583 -0.3118835 0.007647763 -0.044059977 -0.08077132
-0.13006803 -0.29530555 -0.081241146 -0.008781307 0.2999131 -0.09245892 0.08156596 0.06908972
0.1400786 0.22797571 0.048225384 -0.32831436 0.06325336 -0.2854868 0.21887513 0.29745775
-0.13204585 0.12707986 -0.14596777 0.07771407 0.090197355 0.037549548 -0.40099403 0.017787665

output.bias f4 [10]
00000000: 3d68 25be 2178 1b3e e835 99bd 5c64 03bd
00000010: ef56 f73d 08af 9abc 582a fbbd 28e1 dcbc
00000020: 1f98 fe3d 4df5 a43d
-0.16153045 0.15182544 -0.07480985 -0.032078132 0.12077128 -0.01888229 -0.12263936 -0.026962832
0.124313585 0.080546
